models/autoencoder.pt (torch, 742021 bytes, 12 tensors)

start_token f4 [1, 1, 64]
-0.0017896211 -0.00033960506 -0.0011848672 -0.0051479344 0.0035251647 0.03824727 -0.0021044589 -0.00075950706
0.120658875 -0.0008333956 -0.00215338 -0.0023319013 0.001984909 -0.001299748 -0.002325942 -0.00051855115
0.047512352 0.0010636967 -0.0019721552 0.0027982292 0.035082955 0.0030946336 -0.0032752065 0.15890962
-0.002497325 0.0011350687 0.031845663 0.0026075584 0.0035100798 -0.0014444861 -0.0041325428 -0.00078958843
0.0011774938 0.0027000809 -0.0027327056 -0.0027184684 -0.0033594202 -0.001951231 0.00042479965 -0.0011781647
-0.004258648 -0.0006138292 -0.0033886025 -0.0013297691 -0.0026262484 -0.061234932 0.0037135012 0.0039721653
0.00060984475 0.25566283 -0.00047127504 0.001431407 -0.0011837697 0.17359638 0.004256307 0.0006202022
-0.0022585022 0.0023406064 -0.0012922012 -0.0022954706 0.000847654 -0.00011271377 -0.0010982587 -0.6132618
00000000: b891 eaba 050d b2b9 8c4d 9bba 01b0 a8bb
00000010: 7306 673b 2ba9 1c3d f6ea 09bb a819 47ba
00000020: 001c f73d 3b78 5aba b91f 0dbb d0d2 18bb
00000030: 3f15 023b 4e5c aaba d56e 18bb 61ef 07ba
00000040: 509c 423d bd6b 8b3a 463f 01bb 7f62 373b
00000050: 25b3 0f3d 56cf 4a3b d9a4 56bb 34b9 223e
00000060: 29aa 23bb 96c6 943a 9970 023d 92e3 2a3b
00000070: 5e09 663b e954 bdba 486a 87bb 62fc 4eba
00000080: 2356 9a3a d7f3 303b 3117 33bb 5528 32bb
00000090: b829 5cbb 73c0 ffba a5b7 de39 a66c 9aba
000000a0: 218c 8bbb 61e9 20ba 5113 5ebb a64b aeba
000000b0: 231d 2cbb 7bd1 7abd 365e 733b f028 823b
000000c0: fddd 1f3a 3de6 823e 7715 f7b9 0d9e bb3a
000000d0: b828 9bba 40c3 313e 7e78 8b3b 1195 223a
000000e0: 6103 14bb dc64 193b 145f a9ba 9b6f 16bb
000000f0: 1935 5e3a bf60 ecb8 72f3 8fba bafe 1cbf

embed.weight f4 [184, 64]
0.2935983 -0.6656422 -0.39349172 -0.7442642 0.54051733 0.5921574 0.06345607 0.39596966
0.7014588 1.7708205 -0.37562636 1.6416727 -0.38200948 -0.11386276 -1.7321117 -0.8511999
0.31982124 -1.4164884 0.85618407 0.7160368 -0.115566306 0.40120336 -0.24400842 0.07310672
-0.3569039 -0.56003803 -1.3963141 1.6407669 0.5203822 -0.8959272 1.7640319 -1.4997907
1.6961042 0.60456884 -0.77934307 0.81696784 0.49814627 -0.18904746 0.28625652 0.519258
-0.658026 -0.27017915 0.12231664 -0.44618592 -0.43572822 1.2784549 0.2505662 0.39831722
-0.484995 -0.9315744 1.5448973 1.1311685 -1.0319874 -0.587704 -0.7188939 1.9597051
-0.074869804 -0.16617604 -0.78728145 0.3197314 0.8143375 -0.78850466 0.38995716 -0.6478453
0.55245316 -0.9013269 -0.687095 0.032716893 -0.10016166 0.64943784 0.10031358 0.110907845
2.078516 1.4454882 1.0611674 -0.2154409 0.29939127 -1.3190012 0.027173677 0.42588335
0.65637165 0.52061427 0.9165333 0.6179649 1.7373383 -0.77042234 0.13909385 -0.5798251
-0.61842763 -0.30576718 0.10321075 -0.17620893 -0.4736118 -0.09497924 1.1849412 0.959151
0.3523659 1.7126565 0.45508635 -1.403841 1.0077373 -0.7640869 -0.18892455 1.065141
0.4193105 0.19733615 0.70256084 1.3237882 1.8789597 1.1212845 -0.33739874 -0.15864114
0.9203126 0.4317662 1.1658605 -0.94131106 1.982359 -0.06442883 -0.97006655 1.4676958
-1.2226596 -0.75503355 -0.33826402 0.08929298 -0.19867921 -1.0430014 -0.02766728 -0.1420326
-0.9311449 -2.1470463 0.7888472 0.21831943 -0.43564364 0.087062925 -2.6733212 0.035950806
-1.5505635 -1.3732545 -0.6486752 1.879901 -0.51167446 1.5455899 -0.9862105 0.37416658
0.386381 -2.1241465 0.0905154 0.018119302 0.5995871 -0.45616633 -1.5107305 -0.14278397
0.579803 0.11526161 1.1671633 -0.9556164 -0.9271739 -1.1120781 -0.48495343 0.9706925
0.47546178 -0.3480097 0.389242 0.41485336 -1.3447074 -0.22746092 -0.2695831 2.4234102
0.7516892 1.8824501 -0.7825148 0.8107288 -0.105375126 0.77132636 -0.18978144 -0.49162522
-1.9681515 -1.8573588 1.9064585 -0.52486336 1.1362766 0.4865187 0.6892274 0.27119
-1.2304281 -0.45522347 0.15158463 0.27624947 0.7966788 -1.3352827 -2.2389736 -0.54246247
-0.035877485 1.2711114 -0.3705702 -0.52999675 -0.99737054 0.78320783 0.3619762 0.75582105
0.95498216 0.2945209 0.9634092 -0.23898259 -0.67876875 0.4709746 -1.3753575 0.16060428
-1.1198972 0.94555455 1.6046453 -1.0074822 1.0178684 0.18532051 -0.5185674 -0.867359
-0.4061059 0.081237935 0.49756366 -1.1652201 -0.7839552 -1.0800647 2.321107 -1.1278374
-2.677171 -1.4806068 0.5796217 0.50873035 0.5228296 1.0084105 1.0332916 -0.17658913
-0.48397106 -0.96060187 0.3854119 1.3164971 0.20759724 0.32467145 0.1942322 0.7679203
-0.64038616 -0.61044043 2.136558 -2.3072166 1.2328199 0.7785437 -0.97512394 0.03593849
-0.16484705 1.2699523 0.25055826 0.57630956 -0.5235001 -0.5545697 -1.2751906 0.3871719
00000000: 8452 963e 8767 2abf bf77 c9be 1988 3ebf
00000010: 585f 0a3f a197 173f 42f5 813d 89bc ca3e
00000020: ce92 333f 3faa e23f 1952 c0be 5522 d23f
00000030: bf96 c3be e130 e9bd d6b5 ddbf 3de8 59bf
00000040: 9cbf a33e 7e4f b5bf e12e 5b3f 304e 373f
00000050: 07ae ecbd 876a cd3e 58dd 79be fab8 953d
00000060: 1cbc b6be a75e 0fbf 6cba b2bf a604 d23f
00000070: c537 053f 7c5b 65bf cccb e13f 24f9 bfbf
00000080: f119 d93f 06c5 1a3f 0783 47bf ce24 513f
00000090: 070d ff3e a895 41be 3790 923e 18ee 043f
000000a0: 6474 28bf ec54 8abe 2681 fa3d 7b72 e4be
000000b0: c517 dfbe 69a4 a33f 374a 803e 3cf0 cb3e
000000c0: 4451 f8be a97b 6ebf 32bf c53f 21ca 903f
000000d0: 2a18 84bf c573 16bf 6e09 38bf 9ed7 fa3f
000000e0: 5755 99bd 0d2a 2abe 478b 49bf d6b3 a33e
000000f0: 6c78 503f 71db 49bf 77a8 c73e 31d9 25bf
00000100: 926d 0d3f 5cbd 66bf 75e5 2fbf 2602 063d
00000110: 8e21 cdbd 8f41 263f 3571 cd3d a723 e33d
00000120: 6806 0540 c205 b93f 55d4 873f 8a9c 5cbe
00000130: d049 993e 08d5 a8bf 559b de3c 620d da3e
00000140: f907 283f fa46 053f eda1 6a3f f332 1e3f
00000150: 1a61 de3f 663a 45bf 9e6e 0e3e 6b6f 14bf
00000160: 4651 1ebf 848d 9cbe 2860 d33d 1d70 34be
00000170: 3f7d f2be 7a84 c2bd 27ac 973f ec8a 753f
00000180: 4e69 b43e 5438 db3f 1401 e93e 10b1 b3bf
00000190: 89fd 803f 339b 43bf 7075 41be 8a56 883f
000001a0: deaf d63e 7d12 4a3e 07db 333f e471 a93f
000001b0: c081 f03f 4086 8f3f 87bf acbe d372 22be
000001c0: 9b99 6b3f 7610 dd3e eb3a 953f c3f9 70bf
000001d0: f1bd fd3f 43f3 83bd 4856 78bf 75dd bb3f
000001e0: 1c80 9cbf e149 41bf f130 adbe 3ddf b63d
000001f0: 9072 4bbe 1281 85bf 7ea6 e2bc fe70 11be
00000200: 835f 6ebf 3569 09c0 e4f1 493f 218f 5f3e
00000210: af0c dfbe 0c4e b23d b217 2bc0 2741 133d
00000220: dd78 c6bf cec6 afbf 940f 26bf 99a0 f03f
00000230: 19fd 02bf e4d5 c53f 4b78 7cbf c392 bf3e
00000240: bbd3 c53e 04f2 07c0 2360 b93d ee6e 943c
00000250: 8a7e 193f a28e e9be 9e5f c1bf f635 12be
00000260: f86d 143f 470e ec3d 9b65 953f 47a3 74bf
00000270: 455b 6dbf 9358 8ebf d14b f8be 4e7f 783f
00000280: ba6f f33e 542e b2be ba4a c73e a967 d43e
00000290: 5f1f acbf 84eb 68be cc06 8abe 2719 1b40
000002a0: b46e 403f 20f4 f03f e452 48bf ec8b 4f3f
000002b0: eace d7bd a575 453f 1156 42be 4db6 fbbe
000002c0: 63ec fbbf efbd edbf d506 f43f 725d 06bf
000002d0: 8371 913f fb18 f93e 3571 303f 6ad9 8a3e
000002e0: ab7e 9dbf 0d13 e9be 0039 1b3e 9270 8d3e
000002f0: 24f3 4b3f 8bea aabf 584b 0fc0 d2de 0abf
00000300: 45f4 12bd c7b3 a23f 61bb bdbe dead 07bf
00000310: ad53 7fbf 4f80 483f f254 b93e 7d7d 413f
00000320: b679 743f 72cb 963e fca1 763f dab7 74be
00000330: cac3 2dbf 9523 f13e b70b b0bf 7375 243e
00000340: cb58 8fbf dd0f 723f 0465 cd3f 2df5 80bf
00000350: 8349 823f a9c4 3d3e d5c0 04bf 3d0b 5ebf
00000360: 1ded cfbe 1360 a63d aac0 fe3e ef25 95bf
00000370: 4ab1 48bf 8f3f 8abf 048d 1440 fa5c 90bf
00000380: c556 2bc0 8684 bdbf 1662 143f 273c 023f
00000390: 29d8 053f 9813 813f e642 843f c8d3 34be
000003a0: 0ecb f7be 01ea 75bf b554 c53e fa82 a83f
000003b0: 5f94 543e 563b a63e cee4 463e 6d96 443f
000003c0: 59f0 23bf d345 1cbf 5ebd 0840 70a9 13c0
000003d0: 0bcd 9d3f a44e 473f b9a1 79bf 3d34 133d
000003e0: aacd 28be cc8d a23f 2c49 803e 0689 133f
000003f0: 1a04 06bf 48f8 0dbf 7239 a3bf 653b c63e

encoder_rnn.weight_ih_l0 f4 [384, 64]
0.23930761 0.06105579 -0.17041849 0.17928861 0.30540672 -0.60899436 0.48753142 0.56866586
0.3090479 -0.5446217 0.37515944 0.1587106 -0.085267946 0.53151965 0.20970678 0.6966119
0.48115557 0.35371172 0.18220602 -0.14073718 -0.2720633 -0.29050684 -0.011992703 0.5285563
0.6953492 -0.59867215 0.33738673 -0.085198164 0.08689378 0.6330775 0.11642162 0.33042347
0.6586213 -0.5615341 -0.21796107 -0.34699062 -0.1658354 0.18587695 0.5024638 -0.9134731
-0.064499386 -0.039126333 0.09023564 0.30665222 -0.24092732 -0.3754612 -0.17254128 -0.012865352
-0.17542207 -0.786484 0.3933786 -0.37762374 0.20716804 0.38228717 -0.13733263 0.1863512
0.56292766 -0.7284162 -0.3754834 -0.4438127 0.1811559 0.29150158 0.7285859 0.17322178
-0.3345213 -0.04229174 0.009002581 -0.23999357 0.15114506 -0.44040933 0.44215387 0.0064725964
0.19322361 0.2756153 0.21543828 -0.20438868 -0.10074172 0.081414364 -0.51058584 0.21396703
0.005512859 0.06419509 0.22124742 0.0042472347 0.15458338 0.0493037 -0.78996885 0.32536778
0.04887548 0.1765056 0.35984814 -0.06312286 0.18252915 0.035622526 0.0053384006 0.17227289
-0.48449796 0.47549275 -0.844034 0.09163486 0.21551438 -0.33075368 0.05289796 0.28722572
-0.35344127 -0.06368176 -0.00074824825 -0.14851536 0.1453679 -0.3612859 0.19805165 0.07603824
-0.108833246 0.05159465 0.083036005 -0.07793099 -0.09311363 0.28046808 -0.15266049 0.3858075
-0.72921157 0.18590759 -0.14775395 -0.2785901 -0.09611389 -0.061808832 -0.08139955 0.12886551
0.18148847 0.82947886 -0.12987348 0.29964554 0.04476233 0.65388083 -0.87475604 -0.3665426
0.16984308 -0.027656237 0.24971224 0.060534194 0.15762787 -0.18287885 0.35395485 -0.15977125
-1.0698882 0.54755986 0.45386884 -0.13350764 0.41657317 0.12957329 -0.155071 -0.5726887
0.39423946 0.71852416 0.29196364 0.513996 0.5867919 -0.20164281 -0.18188731 -0.19063275
0.40206015 0.010660489 0.39938265 0.052385855 0.061107896 0.67918277 0.14467633 -0.094481364
-0.21578854 0.21908292 0.06572946 0.10220488 -0.82283956 -0.4845091 0.037297707 0.11421304
-0.25842217 0.13297391 -0.370405 -0.32459733 -0.08196552 -0.7656647 0.08643521 -0.20845248
0.09636087 -0.30358496 0.19585957 -0.18177134 -0.59303087 0.682502 0.120901965 0.18118311
-0.22930737 0.069189325 0.13824177 0.16198899 0.16179885 0.10842418 0.28886455 -0.2679579
0.017363619 0.11534178 -0.023434194 0.15841933 -0.05412015 0.2238968 -0.32398304 -0.03501507
-0.11564151 -0.13467535 -0.10887019 0.12542537 0.16958778 0.36354274 -0.075812794 -0.33870012
-0.25891778 -0.39705315 -0.0027019943 0.16110499 -0.17834981 -0.48862138 0.48210445 0.15384874
-0.07406887 -0.18494055 -0.23189215 0.09568568 -0.19206473 0.029001476 0.23635222 0.01668476
0.13626279 0.016384786 0.34849906 0.26386356 -0.13431606 -0.11587896 0.08085822 -0.13497709
-0.2981514 0.011447709 0.19233994 -0.25494587 0.07612437 -0.10007431 0.16932409 0.032782488
-0.104168996 -0.17321339 0.07935601 -0.027084084 -0.43722525 0.24179891 -0.10816112 0.15110907
00000000: 0e0d 753e a315 7a3d 2f82 2ebe 6f97 373e
00000010: 455e 9c3e 0ee7 1bbf b89d f93e 1694 113f
00000020: 873b 9e3e 546c 0bbf e614 c03e 0885 223e
00000030: f6a0 aebd ac11 083f 60bd 563e 2855 323f
00000040: 065a f63e b419 b53e 3794 3a3e 681d 10be
00000050: e14b 8bbe 50bd 94be 0b7d 44bc 774f 073f
00000060: 6802 323f 9442 19bf f4bd ac3e 607c aebd
00000070: 5ef5 b13d 5e11 223f 756e ee3d 442d a93e
00000080: 689b 283f b3c0 0fbf 3031 5fbe c1a8 b1be
00000090: c1d0 29be 8756 3e3e 78a1 003f 60d9 69bf
000000a0: 4118 84bd ef42 20bd 77cd b83d 8501 9d3e
000000b0: a7b5 76be 733c c0be a9ae 30be 33c9 52bc
000000c0: d8a1 33be 0457 49bf eb68 c93e e657 c1be
000000d0: dc23 543e 25bb c33e eda0 0cbe d9d2 3e3e
000000e0: 071c 103f 7c79 3abf 5c3f c0be 6b3b e3be
000000f0: ef80 393e b23f 953e 9b84 3a3f 0d61 313e
00000100: 6046 abbe 1b3a 2dbd 907f 133c e0c0 75be
00000110: c5c5 1a3e 557d e1be fe61 e23e 1318 d43b
00000120: 69dc 453e 731d 8d3e da9b 5c3e 444b 51be
00000130: ad51 cebd 93bc a63d c1b5 02bf 2c1a 5b3e
00000140: 37a5 b43b b778 833d af8e 623e 632c 8b3b
00000150: 1b4b 1e3e adf2 493d 663b 4abf 9b96 a63e
00000160: a831 483d e2bd 343e 043e b83e 8f46 81bd
00000170: ece8 3a3e ede8 113d c0ed ae3b 4e68 303e
00000180: 1e10 f8be c973 f33e 9d12 58bf 0fab bb3d
00000190: cdaf 5c3e 8c58 a9be 88ab 583d 400f 933e
000001a0: 41f6 b4be 956b 82bd 1726 44ba 6914 18be
000001b0: 53db 143e 77fa b8be 0dce 4a3e f0b9 9b3d
000001c0: f7e3 debd e954 533d c80e aa3d 489a 9fbd
000001d0: 5cb2 bebd 8399 8f3e 0853 1cbe 9088 c53e
000001e0: 9cad 3abf 8f5e 3e3e d04c 17be 5da3 8ebe
000001f0: 5cd7 c4bd 422b 7dbd cfb4 a6bd 52f5 033e
00000200: 1dd8 393e ba58 543f 8efd 04be 246b 993e
00000210: b458 373d bc64 273f 03f0 5fbf 79ab bbbe
00000220: 58eb 2d3e 558f e2bc 91b4 7f3e b4f2 773d
00000230: 3369 213e 9844 3bbe 9239 b53e 139b 23be
00000240: 19f2 88bf e22c 0c3f 7f61 e83e 3ab6 08be
00000250: 1449 d53e dcae 043e efca 1ebe ba9b 12bf
00000260: c1d9 c93e 33f1 373f 427c 953e 3e95 033f
00000270: fe37 163f 747b 4ebe ab40 3abe 3b35 43be
00000280: d4da cd3e 55a9 2e3c e27b cc3e 8d92 563d
00000290: 464c 7a3d ecde 2d3f 0826 143e 727f c1bd
000002a0: acf7 5cbe 4657 603e 2b9d 863d cb50 d13d
000002b0: 9da5 52bf 9411 f8be 7bc5 183d 87e8 e93d
000002c0: e94f 84be 502a 083e b9a5 bdbe 9f31 a6be
000002d0: 8add a7bd 9a02 44bf f204 b13d 9174 55be
000002e0: d958 c53d 7d6f 9bbe 698f 483e 4422 3abe
000002f0: dfd0 17bf 73b8 2e3f 739b f73d 1188 393e
00000300: 8dcf 6abe 22b3 8d3d 408f 0d3e 71e0 253e
00000310: 99ae 253e 7f0d de3d 0ee6 933e c731 89be
00000320: 263e 8e3c 5038 ec3d 11f9 bfbc ad38 223e
00000330: 17ad 5dbd 3445 653e 1be1 a5be f66b 0fbd
00000340: 75d5 ecbd 56e8 09be 56f7 debd 826f 003e
00000350: 6ba8 2d3e 4622 ba3e bd43 9bbd 1a6a adbe
00000360: df90 84be 8d4a cbbe f113 31bb b5f8 243e
00000370: 55a1 36be 952c fabe 65d6 f63e 868a 1d3e
00000380: 6bb1 97bd 0e61 3dbe 2375 6dbe dbf6 c33d
00000390: 9eac 44be 8194 ed3c 5106 723e 7aae 883c
000003a0: 7988 0b3e 6339 863c 786e b23e 2019 873e
000003b0: 268a 09be f351 edbd ff98 a53d 6f37 0abe
000003c0: 4da7 98be 2c8f 3b3c c3f4 443e 4488 82be
000003d0: 18e7 9b3d c3f3 ccbd 4b63 2d3e ee46 063d
000003e0: 8e56 d5bd da5e 31be 6785 a23d 71df ddbc
000003f0: fddb dfbe 229a 773e 9483 ddbd 56bc 1a3e

encoder_rnn.weight_hh_l0 f4 [384, 128]
1.1207078 0.00407495 -0.30943805 -0.20143056 -0.16963995 -0.244824 0.1091182 -0.0017872294
0.12249076 0.087345794 -0.08587033 0.04687593 -0.16498712 0.017092058 -0.11621802 -0.0070521324
-0.17175566 -0.08271631 -0.07093764 0.7011669 -0.012580611 -0.13435793 -0.098806776 -0.094765805
-0.022056788 0.0790671 0.11242943 -0.48179275 -0.289238 0.14622304 0.27465898 -0.0390393
0.06497776 -0.0088891545 -0.029255055 -0.0025211812 0.090283245 0.16217674 0.014463686 -0.22586565
0.010542509 0.6332931 -0.18035623 -2.082937 -0.050344497 0.18370962 -0.056517594 -0.034628604
-0.27806306 -0.079293564 0.05251246 0.1097865 0.21184804 -0.33020645 0.045819573 0.008983992
0.19433263 0.17639485 0.00026509663 0.17854722 -0.2638478 -0.0074246554 0.24906509 -0.021544179
0.14189357 -0.059535693 -0.4962939 0.12228546 0.13591588 0.26918042 -0.12776276 0.0019680122
-0.19185427 -0.1029124 -0.27710995 0.12810901 0.011399614 0.55789447 -0.08917726 -2.075717
0.030570552 0.019718755 -0.102715485 0.011355858 0.20375907 -0.096963614 -0.3455222 0.40584078
0.025289504 0.16976172 -0.15259914 -0.11739031 -0.18508124 0.04112535 -0.07452774 -0.02006535
0.07755039 0.36685136 -0.012883023 1.8486652 0.04250956 0.03767715 -0.064576514 0.08456956
-0.23932022 0.06502688 -0.116649106 -0.07612836 0.090619616 0.09944745 0.09811965 -0.03503953
-0.022974975 -0.27271134 0.006656577 0.06787534 -0.16451575 -0.13657586 0.03987407 -0.0690458
0.020941108 -0.33767056 -0.18980844 0.022436755 -0.09225752 0.010932919 0.01154056 -1.6320044
0.048058048 -0.113034554 -0.6145183 -0.116098 0.025475612 -0.20668374 -0.021603225 -0.3305331
-0.59090257 -0.11601234 0.33418867 -0.31775498 -0.03492065 -0.022804204 -0.14986251 -0.16053289
-0.23317067 0.19827309 -0.09253592 -0.3117653 -0.14207679 -0.2798974 0.11181619 0.6575131
0.22227709 0.49117586 -0.14025337 -0.11306274 0.64310795 -0.01354753 -0.061475683 -0.3835171
-0.044496782 -0.72787786 0.0875244 -0.23911098 -0.33118913 0.20423134 0.084654026 -0.082639985
0.25865996 -0.8353545 0.25991815 0.2424501 -0.15445939 -0.2461083 0.22872552 -0.10424882
-0.0028461495 0.20490417 -0.091519244 0.49261722 -0.066832915 0.584171 -0.22553925 -0.29164347
-0.22091815 -0.31196725 -0.13766031 -0.2456778 0.35634726 -0.20945324 -0.9915986 0.30383778
-0.30290163 0.031812157 0.71855026 -0.09677026 0.33309248 0.13228743 0.11877705 0.19014186
0.17364068 -0.4288543 -0.15799384 -0.31740466 -0.6226063 -0.015847018 -0.51345086 -0.41412014
0.10667802 -0.08399011 0.11782958 0.1369615 0.91012716 -0.22762033 -0.06253988 0.47098884
0.021235408 -0.043075398 -0.17434582 -0.04336675 -1.2094917 -0.04702229 -0.13217427 -0.16405421
0.43652597 0.13944274 0.05725864 -0.69882566 -0.23361376 0.36155188 0.0930129 -0.17553028
0.66048074 0.24172136 -0.14715223 0.016147064 0.12247722 -0.053276155 -0.1724689 0.14544162
-0.10318226 -0.048406392 -0.3615121 0.22831777 0.0009117827 0.0356475 0.22526228 -0.250117
0.062227827 -0.10306359 0.038929626 -0.08147795 0.083511986 -0.14967324 0.30597878 0.40885508
00000000: 5a73 8f3f 2887 853b aa6e 9ebe d043 4ebe
00000010: 18b6 2dbe 25b3 7abe 5d79 df3d 7841 eaba
00000020: 70dc fa3d 5ae2 b23d c9dc afbd fa00 403d
00000030: 62f2 28be a504 8c3c b703 eebd 9315 e7bb
00000040: b7e0 2fbe 2b67 a9bd c147 91bd ad7f 333f
00000050: e81e 4ebc 2095 09be 355b cabd 9314 c2bd
00000060: 70b0 b4bc efed a13d 6741 e63d 8aad f6be
00000070: 0117 94be 7ebb 153e 1aa0 8c3e ace7 1fbd
00000080: 0f13 853d d1a3 11bc 4ca8 efbc 673a 25bb
00000090: 6ce6 b83d a911 263e 19f9 6c3c 5349 67be
000000a0: 7dba 2c3c 7f1f 223f 4eaf 38be d74e 05c0
000000b0: 0836 4ebd 601e 3c3e fe7e 67bd b9d6 0dbd
000000c0: 485e 8ebe aa64 a2bd 4e17 573d bfd7 e03d
000000d0: b1ee 583e d210 a9be 4ead 3b3d 9831 133c
000000e0: 22ff 463e daa0 343e abfc 8a39 15d5 363e
000000f0: 0f17 87be 864a f3bb eb0a 7f3e 6b7d b0bc
00000100: 8c4c 113e b3db 73bd 3c1a febe cd70 fa3d
00000110: 882d 0b3e 04d2 893e 3ed4 02be c4f9 003b
00000120: 7275 44be bdc3 d2bd 5be1 8dbe 022f 033e
00000130: 72c5 3a3c 2cd2 0e3f 91a2 b6bd 8cd8 04c0
00000140: 186f fa3c 3a89 a13c 7f5c d2bd ec0d 3a3c
00000150: 38a6 503e dc94 c6bd 49e8 b0be 5dca cf3e
00000160: ef2b cf3c 04d6 2d3e f342 1cbe 556a f0bd
00000170: f085 3dbe 0e73 283d 00a2 98bd 1760 a4bc
00000180: bdd2 9e3d f1d3 bb3e 5113 53bc 10a1 ec3f
00000190: 811e 2e3d 5b53 1a3d b140 84bd ce32 ad3d
000001a0: 5c10 75be d02c 853d bae5 eebd 30e9 9bbd
000001b0: c796 b93d 1bab cb3d f4f2 c83d 9c85 0fbd
000001c0: 0436 bcbc d2a0 8bbe 6a1f da3b 3a02 8b3d
000001d0: d176 28be 8bda 0bbe fe52 233d e267 8dbd
000001e0: b08c ab3c 28e3 acbe 255d 42be 49cd b73c
000001f0: 83f1 bcbd fc1f 333c 9e14 3d3c 85e5 d0bf
00000200: 84d8 443d a97e e7bd 1251 1dbf cac4 edbd
00000210: 3bb2 d03c e7a4 53be 3ff9 b0bc a23b a9be
00000220: 6445 17bf e197 edbd c71a ab3e c8b0 a2be
00000230: f508 0fbd e2cf babc 8f75 19be bc62 24be
00000240: 4bc4 6ebe 1a08 4b3e 7983 bdbd b49f 9fbe
00000250: 947c 11be b64e 8fbe e3ff e43d c752 283f
00000260: 9b9c 633e 677b fb3e 949e 0fbe 708d e7bd
00000270: b9a2 243f 76f6 5dbc edcd 7bbd 5a5c c4be
00000280: 4242 36bd 3456 3abf fe3f b33d 82d9 74be
00000290: 9f91 a9be 0522 513e 175f ad3d 273f a9bd
000002a0: 146f 843e cbd9 55bf fe13 853e d744 783e
000002b0: 9a2a 1ebe d003 7cbe 0637 6a3e 6880 d5bd
000002c0: 7786 3abb 66d2 513e 716e bbbd 5338 fc3e
000002d0: b2df 88bd 3b8c 153f c3f3 66be 4b52 95be
000002e0: 5e38 62be 2cba 9fbe d3f6 0cbe f692 7bbe
000002f0: 2673 b63e e97a 56be 68d9 7dbf a090 9b3e
00000300: ec15 9bbe 774d 023d e9f2 373f 7c2f c6bd
00000310: 198b aa3e 5b76 073e 6241 f33d 8cb4 423e
00000320: ddce 313e ca92 dbbe 23c9 21be dd82 a2be
00000330: 2063 1fbf 9bd1 81bc 8471 03bf 8e07 d4be
00000340: 017a da3d 0203 acbd a350 f13d a33f 0c3e
00000350: 18fe 683f 4e15 69be e914 80bd 7325 f13e
00000360: e1f5 ad3c d46f 30bd b687 32be 55a1 31bd
00000370: a0d0 9abf 729a 40bd b158 07be d4fd 27be
00000380: 5580 df3e 14ca 0e3e 0988 6a3d 3de6 32bf
00000390: 7238 6fbe 541d b93e 8c7d be3d 36be 33be
000003a0: 4415 293f ce85 773e 13af 16be d946 843c
000003b0: 56d5 fa3d 1938 5abd b09b 30be a6ee 143e
000003c0: 3951 d3bd c845 46bd 1d18 b9be 22cc 693e
000003d0: b404 6f3a 1d03 123d 28ab 663e 560f 80be
000003e0: 9be2 7e3d 0113 d3bd ac74 1f3d e9dd a6bd
000003f0: 5508 ab3d f143 19be 40a9 9c3e 7455 d13e

encoder_rnn.bias_ih_l0 f4 [384]
0.13573684 0.3012608 0.046760812 0.06839665 -0.046443217 0.6312252 0.41015676 -0.38925725
0.05991342 0.41581148 -0.61961293 0.12946112 -0.107324526 -0.2527548 -0.024594696 0.062870376
0.21676819 0.24528334 0.13697723 0.58852893 -0.021785568 -0.18147299 0.12544365 0.19846556
0.23935375 0.09723753 0.0555637 -0.22384329 0.3744666 0.54177815 -0.18686195 0.24601696
0.07616482 0.3057194 0.43055087 0.33254614 0.059075925 -0.35643557 0.49208614 0.36215365
0.45999956 -0.12992874 -0.18114345 0.6568049 -0.20321779 0.04567527 -0.019471684 -0.20438205
-0.24540459 -0.06716167 0.067144975 -0.07957052 0.2418889 0.38221422 -0.17249449 -0.11421221
0.027820889 -0.31011063 0.023780933 -0.29762182 0.16805762 -0.18216774 0.26272473 0.023271339
0.13959958 -0.21370547 -0.3152658 -0.24361737 -0.35122478 0.10287268 -0.42035344 0.80321777
0.1065624 -0.1974746 -0.454957 0.0017775132 0.027294368 -0.19180244 0.37855223 0.472908
-0.0018091539 0.35178137 0.12368606 -0.05634373 0.071976006 0.29052413 0.12074312 -0.21927437
0.20156682 -0.12066949 0.16362005 -0.3858301 -0.068356514 -0.42919484 0.01990585 -0.33413526
-0.23750894 0.029712416 0.44419363 -0.034995317 -0.34043396 -0.08247219 -0.36849198 0.16605332
0.11170883 0.40834376 -0.22630894 0.072294086 0.3699448 -0.17407803 0.15479116 0.4802027
-0.015437444 0.09931476 -0.29680985 0.008003642 0.15927352 -0.16299962 0.09947349 0.022929145
-0.07100551 -0.14739348 -0.042825058 -0.080013625 0.22073463 0.13855284 -0.27630496 -0.14436162
-0.08574781 0.51488966 0.22703446 0.6325844 0.7683705 0.33019617 0.43457484 1.0842174
0.8180104 0.08556942 1.616571 0.47142652 1.1955936 0.44448406 1.5277077 0.24191731
0.6718613 0.8511617 0.1235621 0.22809917 1.0466465 0.1424684 0.37350234 0.3592102
0.5702031 -0.37195772 0.44605094 0.600372 1.399063 -0.2057124 0.58611435 0.66134655
0.40910336 0.03405351 0.81320435 1.2230363 1.6712285 0.29138443 -0.53046316 -0.10486831
0.46267915 0.6908882 0.32269853 0.42961642 1.2481107 0.2912613 0.97304916 1.1192726
0.8589221 0.8718696 0.61268926 0.9484347 -0.07099558 0.25311962 0.31130204 1.3178222
0.43411648 0.7268258 1.147406 0.8485792 0.6205449 0.18254104 0.6102531 1.6353592
-0.1182008 0.67054975 0.63576996 0.44231477 0.8828247 0.30042672 1.2537006 0.27940288
-0.15381658 1.131059 0.042127393 0.7839142 1.12566 1.2393055 -0.53387624 0.2655238
0.475676 0.20999819 0.22750814 0.6337008 0.34688336 0.6833883 0.77496606 0.68788296
0.3812561 1.6282511 0.74487776 1.0377513 1.0019478 0.79726696 0.9980443 0.96698934
0.81277514 0.8111352 0.5223431 0.5144949 1.2833533 1.2112501 0.5306033 0.9261794
0.62251896 0.1044777 0.3682067 0.32785937 0.5754268 0.8106544 1.2681044 -0.05935785
0.5320278 0.904534 1.3382975 0.90794593 -0.071051314 0.15269318 0.778638 0.46269575
1.1568916 0.72296566 0.144846 0.9117943 0.04260087 0.6337587 1.1233253 0.6908938
00000000: 99fe 0a3e db3e 9a3e 4488 3f3d 8b13 8c3d
00000010: 3e3b 3ebd fa97 213f 1100 d23e ba4c c7be
00000020: c667 753d 3ee5 d43e f49e 1ebf 7591 043e
00000030: f6cc dbbd 1469 81be d17a c9bc 2fc2 803d
00000040: 7bf8 5d3e 8e2b 7b3e c243 0c3e d5a9 163f
00000050: a677 b2bc 0ed4 39be 4d74 003e 8e3a 4b3e
00000060: 2619 753e 7824 c73d c396 633d 2d37 65be
00000070: 16ba bf3e f9b1 0a3f bd58 3fbe dfeb 7b3e
00000080: 4dfc 9b3d 4187 9c3e 2a71 dc3e 7d43 aa3e
00000090: 99f9 713d b97e b6be b7f2 fb3e 346c b93e
000000a0: 1085 eb3e 0a0c 05be ab7d 39be 5e24 283f
000000b0: 5318 50be fe15 3b3d 1583 9fbc 8749 51be
000000c0: 574b 7bbe 0f8c 89bd 4e83 893d def5 a2bd
000000d0: b9b1 773e 95b1 c33e 65a2 30be 17e8 e9bd
000000e0: a2e8 e33c d2c6 9ebe 3bd0 c23c e361 98be
000000f0: 4c17 2c3e 2e8a 3abe db83 863e 89a3 be3c
00000100: 31f3 0e3e 9bd5 5abe 856a a1be d576 79be
00000110: bcd3 b3be e9ae d23d 9138 d7be ae9f 4d3f
00000120: 633d da3d c836 4abe 20f0 e8be 72fb e83a
00000130: 7098 df3c dc67 44be 99d1 c13e ff20 f23e
00000140: 2221 edba b01c b43e 1e4f fd3d afc8 66bd
00000150: 2868 933d 94bf 943e 2b48 f73d 7689 60be
00000160: 8867 4e3e 9121 f7bd 048c 273e 868b c5be
00000170: 80fe 8bbd 6dbf dbbe 9811 a33c c713 abbe
00000180: 8b35 73be 7467 f33c 596d e33e 4057 0fbd
00000190: 5c4d aebe 2ee7 a8bd fbaa bcbe e209 2a3e
000001a0: 99c7 e43d 6f12 d13e 88bd 67be ec0e 943d
000001b0: 6869 bd3e 8341 32be 9381 1e3e 21dd f53e
000001c0: 55ed 7cbc 8965 cb3d 76f7 97be b521 033c
000001d0: 9918 233e 5fe9 26be c2b8 cb3d e7d5 bb3c
000001e0: 566b 91bd 51ee 16be 5469 2fbd 2fde a3bd
000001f0: 4208 623e cce0 0d3e d877 8dbe 88d3 13be
00000200: 8c9c afbd cfcf 033f b97b 683e 0df1 213f
00000210: eeb3 443f 790f a93e 9880 de3e a3c7 8a3f
00000220: 2169 513f 053f af3d cceb ce3f d15e f13e
00000230: 3609 993f 6a93 e33e ed8b c33f 2cb9 773e
00000240: 1aff 2b3f bce5 593f 200e fd3d d492 693e
00000250: 83f8 853f 3ce3 113e b33b bf3e 66ea b73e
00000260: d5f8 113f 3e71 bebe ca60 e43e fbb1 193f
00000270: 7f14 b33f 45a6 52be 970b 163f 024e 293f
00000280: ff75 d13e b17b 0b3d 292e 503f 748c 9c3f
00000290: d1ea d53f 5730 953e 6fcc 07bf 32c5 d6bd
000002a0: 48e4 ec3e 0dde 303f be38 a53e aff6 db3e
000002b0: 17c2 9f3f 3320 953e c019 793f 5344 8f3f
000002c0: 52e2 5b3f d932 5f3f 34d9 1c3f 9ecc 723f
000002d0: 2166 91bd e598 813e fb62 9f3e 66ae a83f
000002e0: 8444 de3e 4111 3a3f 33de 923f 7d3c 593f
000002f0: 08dc 1e3f 0aec 3a3e 8c39 1c3f 7353 d13f
00000300: 4313 f2bd 26a9 2b3f d2c1 223f 1577 e23e
00000310: cd00 623f 88d1 993e 4379 a03f e50d 8f3e
00000320: 1882 1dbe 8bc6 903f c68d 2c3d 9aae 483f
00000330: a015 903f 90a1 9e3f 1dac 08bf bcf2 873e
00000340: ce8b f33e c409 573e e5f7 683e 373a 223f
00000350: b29a b13e 89f2 2e3f 2d64 463f 1919 303f
00000360: 0034 c33e 886a d03f 4fb0 3e3f 09d5 843f
00000370: d33f 803f b019 4c3f d57f 7f3f 9d8c 773f
00000380: 0812 503f 8ea6 4f3f 47b8 053f f0b5 033f
00000390: ec44 a43f 3e0a 9b3f 9ed5 073f 181a 6d3f
000003a0: 675d 1f3f 68f8 d53d 9785 bc3e 2fdd a73e
000003b0: 2c4f 133f 0c87 4f3f 3f51 a23f 3821 73bd
000003c0: f932 083f 8a8f 673f 554d ab3f 256f 683f
000003d0: 5a83 91bd 9a5b 1c3e d254 473f 75e6 ec3e
000003e0: 0615 943f 4714 393f 8352 143e 5a6b 693f
000003f0: 407e 2e3d 033e 223f 20c9 8f3f 6bde 303f

encoder_rnn.bias_hh_l0 f4 [384]
0.013130901 0.23357145 0.0337591 0.09407774 -0.16192558 0.6577746 0.43728837 -0.35415477
0.14909826 0.4204446 -0.6008074 0.10820687 0.036143027 -0.21299937 -0.043043338 0.08919847
0.21311408 0.13273238 0.15566847 0.74082804 0.077139266 -0.1698309 0.1783 0.24329136
0.07346269 0.15687817 0.08114574 -0.14070792 0.29358953 0.61629397 -0.14047004 0.39345264
0.18162577 0.31488782 0.43986872 0.35161868 0.034056254 -0.35659006 0.39990857 0.37383944
0.5878804 -0.17161863 -0.20212626 0.67193395 -0.1633123 0.015658816 -0.0782165 -0.07845507
-0.32361126 0.058892343 -0.0047814436 -0.0009306498 0.16623479 0.3384477 -0.3113904 -0.17571095
0.034765325 -0.28965667 -0.0362805 -0.18934134 0.19238105 -0.084211595 0.2707532 0.09705225
0.07591247 -0.28995398 -0.31554034 -0.22916678 -0.27542093 0.19716294 -0.2900066 0.84855956
0.09956641 -0.12946601 -0.483873 -0.10346902 -0.053074934 -0.3337447 0.33663854 0.49604768
-0.0055105984 0.36387447 0.23494971 -0.16451888 0.023492627 0.21177964 0.06474624 -0.19393304
0.21593928 -0.11658076 0.1702761 -0.4740644 0.0064929584 -0.30781916 0.021997118 -0.30533993
-0.20617892 0.08731343 0.3587853 -0.19464181 -0.4345178 -0.04062456 -0.31070453 0.120831646
0.22343983 0.3699191 -0.25628334 0.12110306 0.36053994 -0.13828297 0.074987516 0.5183304
-0.019926311 -0.0010925314 -0.25285935 -0.07622098 0.10356915 -0.085913666 0.0018992794 -0.042156585
-0.13703106 -0.27511021 -0.08714534 -0.065832675 0.24613288 -0.016128281 -0.17502467 -0.07387814
-0.052099135 0.5517182 0.23861654 0.5675696 0.66157645 0.38179478 0.41392612 1.150054
0.8965582 0.054466598 1.6527303 0.41059446 1.271647 0.32004732 1.5412973 0.13874814
0.5574408 0.76816547 0.02872831 0.27327156 0.9981201 0.2638547 0.36559975 0.24231967
0.54905045 -0.376627 0.34295943 0.70921427 1.3871037 -0.2746604 0.5029053 0.80027306
0.45362076 0.06527669 0.6837856 1.2265096 1.6497146 0.25461847 -0.5510002 -0.15285206
0.5945439 0.7492218 0.31923312 0.43085214 1.295171 0.35104814 0.8781856 1.0924208
0.98836875 0.78685534 0.5469035 0.94903624 0.058990434 0.3111089 0.20025568 1.2525604
0.45662403 0.7607001 1.0418755 0.8783592 0.6988112 0.13090232 0.6108904 1.6320246
0.019476747 0.83406866 0.64892805 0.60401213 0.91860676 0.42074043 1.2276703 0.15935808
-0.13018708 1.0444757 0.0907778 0.8435768 1.155061 1.2678393 -0.42849386 0.20578739
0.49457765 0.2559205 0.32044077 0.58181274 0.30947223 0.6623898 0.8376157 0.7056097
0.4515165 1.7008829 0.799728 1.0737653 0.97138786 0.8546145 1.0463868 0.91988564
0.8518474 0.82222056 0.4619114 0.61058587 1.3362749 1.1577961 0.595428 0.9200227
0.66778934 0.030741237 0.47465196 0.18858585 0.5345741 0.7841657 1.3750752 0.038479935
0.5619188 0.9758806 1.3658983 0.8727934 0.052932445 0.13320644 0.84342784 0.39768317
1.1432287 0.81272924 0.10803439 0.9977934 -0.048980247 0.7016162 1.2234042 0.80023813
00000000: fe22 573c 5b2d 6f3e fb46 0a3d d5ab c03d
00000010: d2cf 25be eb63 283f 43e4 df3e c653 b5be
00000020: 37ad 183e 8444 d73e 84ce 19bf 909b dd3d
00000030: b60a 143d 821c 5abe 364e 30bd b0ad b63d
00000040: 943a 5a3e ffea 073e 8e67 1f3e e8a6 3d3f
00000050: 31fb 9d3d 27e8 2dbe 4694 363e 5f21 793e
00000060: 9b73 963d aca4 203e bd2f a63d bd15 10be
00000070: 5e51 963e 71c5 1d3f 61d7 0fbe a072 c93e
00000080: 1bfc 393e fa38 a13e 7936 e13e 5d07 b43e
00000090: 927e 0b3d f992 b6be d1c0 cc3e e267 bf3e
000000a0: 547f 163f cbbc 2fbe 30fa 4ebe dd03 2c3f
000000b0: 573b 27be eb46 803c f92f a0bd 0dad a0bd
000000c0: 60b0 a5be 1939 713d a8ad 9cbb daf6 73ba
000000d0: 7439 2a3e 0449 ad3e 906e 9fbe 92ed 33be
000000e0: 1666 0e3d e14d 94be dd9a 14bd b2e2 41be
000000f0: 8aff 443e 2177 acbd 2aa0 8a3e 54c3 c63d
00000100: ff77 9b3d d974 94be 818e a1be b2aa 6abe
00000110: f903 8dbe 15e5 493e bf7b 94be 333b 593f
00000120: 79e9 cb3d bd92 04be 34be f7be 91e7 d3bd
00000130: 1a65 59bd 96e0 aabe e35b ac3e f6f9 fd3e
00000140: 4092 b4bb c14d ba3e a896 703e a377 28be
00000150: 9c73 c03c c3dc 583e ad99 843d 6296 46be
00000160: 301f 5d3e e5c1 eebd dc5c 2e3e 92b8 f2be
00000170: e2c2 d43b 799a 9dbe 4d33 b43c 8455 9cbe
00000180: 9120 53be 62d1 b23d b5b2 b73e 2f50 47be
00000190: 1e79 debe f065 26bd aa14 9fbe 9576 f73d
000001a0: 69cd 643e 0966 bd3e 9237 83be e204 f83d
000001b0: b198 b83e 0d9a 0dbe 0e93 993d 4db1 043f
000001c0: 813c a3bc 4533 8fba c876 81be bf19 9cbd
000001d0: 101c d43d 81f3 afbd 3ef1 f83a 62ac 2cbd
000001e0: df51 0cbe 3fdb 8cbe 4279 b2bd 48d3 86bd
000001f0: 420a 7c3e 751f 84bc ab39 33be 6c4d 97bd
00000200: e765 55bd 673d 0d3f e557 743e 3e4c 113f
00000210: 135d 293f 9b7a c33e 20ee d33e f834 933f
00000220: d784 653f 5e18 5f3d ab8c d33f 7039 d23e
00000230: 54c5 a23f 3edd a33e 3b49 c53f fe13 0e3e
00000240: 71b4 0e3f 7ea6 443f a257 eb3c 40ea 8b3e
00000250: cd84 7f3f f717 873e e42f bb3e a622 783e
00000260: 928e 0c3f 41d5 c0be 6198 af3e 118f 353f
00000270: 9d8c b13f 4aa0 8cbe 67be 003f b2de 4c3f
00000280: fb40 e83e c9af 853d 930c 2f3f 44fe 9c3f
00000290: d929 d33f 5a5d 823e 590e 0dbf 4085 1cbe
000002a0: 0734 183f 00cd 3f3f 8672 a33e a798 dc3e
000002b0: 2ac8 a53f 95bc b33e c5d0 603f 72d4 8b3f
000002c0: bc05 7d3f 5a6f 493f de01 0c3f 0af4 723f
000002d0: f49f 713d aa49 9f3e d30f 4d3e e653 a03f
000002e0: a0ca e93e 3ebd 423f 2d5c 853f 26dc 603f
000002f0: 4ae5 323f 420b 063e 5063 1c3f 2fe6 d03f
00000300: b38d 9f3c 8685 553f 2620 263f 8aa0 1a3f
00000310: d029 6b3f 4a6b d73e 4d24 9d3f c42e 233e
00000320: c34f 05be 61b1 853f b6e9 b93d a6f4 573f
00000330: 0ad9 933f 8f48 a23f 8c63 dbbe eeb9 523e
00000340: 4839 fd3e 0308 833e d010 a43e aef1 143f
00000350: 2573 9e3e 6192 293f fc6d 563f d6a2 343f
00000360: 2c2d e73e 88b6 d93f f9ba 4c3f 2471 893f
00000370: e0ac 783f 04c8 5a3f 01f0 853f a07d 6b3f
00000380: ac12 5a3f 0c7d 523f a77f ec3e 5b4f 1c3f
00000390: 0e0b ab3f aa32 943f f86d 183f 9c86 6b3f
000003a0: 3ef4 2a3f 0cd5 fb3c 9505 f33e a61c 413e
000003b0: d9d9 083f 15bf 483f 7702 b03f 239d 1d3d
000003c0: e9d9 0f3f 50d3 793f c1d5 ae3f 636f 5f3f
000003d0: b1cf 583d 4567 083e e3ea 573f 219d cb3e
000003e0: 5155 923f 060f 503f 2241 dd3d 636f 7f3f
000003f0: 839f 48bd 1f9d 333f 8298 9c3f 68dc 4c3f

decoder_rnn.weight_ih_l0 f4 [384, 64]
-1.162501 0.17045422 -1.1060222 -0.94970614 -0.053477794 0.21762495 -1.5004125 0.45046312
0.22885638 -0.14444305 -0.9184047 -0.5027937 0.027213823 0.2032869 -1.7423524 0.24360642
0.16883756 0.46852976 -1.322003 -0.20372291 0.13622765 0.16805676 0.06477895 0.17604029
-0.5654318 -0.15009 0.1924022 0.9184834 1.0324969 -1.3400193 -0.5602979 -0.6333801
0.7951113 0.7195699 -0.93020165 -0.860652 -0.0894858 -0.8595276 0.63334405 -0.62839293
-1.3318144 -0.77350235 -0.8280104 -0.79248667 -0.97597 -0.1437799 0.91724586 -0.083799586
0.600739 0.25151297 0.3644672 0.08522293 -0.6657966 0.27801952 0.09559009 0.52559316
-0.11972418 0.24442515 0.024071058 -0.866932 -0.5180757 0.38549322 -0.8564689 -0.48425165
-0.71378887 -0.10201509 -0.48882928 -0.5555041 0.5702088 0.62787384 -0.55886155 -0.19075142
0.63621193 0.13092208 -0.4459312 -0.356854 0.20206891 -0.33776188 -0.37790266 0.11525054
0.6138727 0.19752683 -0.67347556 0.17153688 0.5853344 0.23671357 -0.3414207 0.8998191
-0.39790693 0.27223635 0.6929328 0.61112535 0.64346975 -0.5435231 -0.108761705 -0.5668659
0.42912203 0.43065622 -0.68051034 -0.7509656 0.18027067 -0.5466802 0.116624504 -0.33882466
-0.5808103 -0.058889758 -0.52373487 -0.23013465 -0.42724022 -0.5970291 0.7164474 0.38228697
0.45213875 0.8300269 0.20214476 0.15470935 0.061509255 0.79809475 0.56984407 0.13402191
0.3399658 0.5037247 -0.47195613 -0.30035207 -0.49176484 -0.42372814 -0.23422454 -1.1953799
0.12778604 0.1663648 0.034580268 -0.03279458 0.259236 0.22162394 0.037502125 -0.34607515
0.4027359 -0.22254568 -0.058937345 -0.15711945 0.3487249 -0.30149767 0.12032522 0.18734375
0.32932636 -0.31779337 0.06897466 0.3250889 0.22313386 0.38237312 -0.296365 0.32273525
0.25454742 0.3120258 0.22780457 0.04934095 -0.030514391 0.15394413 0.020315249 0.08967015
-0.34556383 -0.12996694 0.05114991 -0.012752839 -0.26928145 -0.026470207 0.13074905 0.32816097
0.07174383 0.24952592 0.21779576 -0.016024347 -0.028402174 -0.2954979 0.0074233874 0.387636
-0.23185164 0.42826107 -0.12601672 0.3223119 -0.31436098 0.3054427 0.31344718 -0.3097569
-0.16960369 0.17186505 -0.27315265 -0.2872636 0.2987903 0.20373224 0.26191708 -0.34375218
0.26577333 0.25886205 0.20381774 0.3566124 0.03758878 0.42984468 0.31340608 -0.058901127
0.6241941 -0.037423857 0.2931931 -0.4157142 -0.053669576 -0.36563835 -0.06879424 0.35892424
0.4589038 -0.118796505 0.27293208 0.09219189 0.547434 0.07426523 -0.05659239 0.6126417
0.22310866 0.040999774 0.46108404 -0.37448397 -0.2944379 0.36195356 0.32165766 0.18180749
-0.36132264 -0.33657917 1.4348834e-05 0.055254865 -0.24363495 -0.064733945 0.48336813 0.032272
0.44061774 0.24379818 0.07227225 0.504316 0.33335063 -0.5108581 -0.22394696 0.115124375
-0.06855057 0.73235905 -0.220045 0.11109696 -0.33395737 0.7541308 0.47130635 -0.09973028
-0.10743875 0.5113364 -0.19612288 -0.39473653 0.101924546 0.13662876 0.14731865 -0.8542821
00000000: d5cc 94bf 8d8b 2e3e 2392 8dbf f11f 73bf
00000010: 880b 5bbd 13d9 5e3e 840d c0bf 1aa3 e63e
00000020: 5459 6a3e e1e8 13be 921c 6bbf 17b7 00bf
00000030: 86ef de3c 712a 503e 6705 dfbf f673 793e
00000040: c1e3 2c3e 22e3 ef3e 6537 a9bf bd9c 50be
00000050: 437f 0b3e 1217 2c3e d3aa 843d e843 343e
00000060: 23c0 10bf 31b1 19be 1505 453e ba21 6b3f
00000070: dc28 843f c185 abbf af6f 0fbf 3325 22bf
00000080: 6a8c 4b3f bc35 383f b221 6ebf b153 5cbf
00000090: 5544 b7bd 000a 5cbf d622 223f 5cde 20bf
000000a0: e578 aabf 4004 46bf 7df8 53bf 68e0 4abf
000000b0: 2bd9 79bf 0a3b 13be a0d0 6a3f 1e9f abbd
000000c0: 08ca 193f 4fc6 803e 729b ba3e 5c89 ae3d
000000d0: a571 2abf 9358 8e3e bdc4 c33d 468d 063f
000000e0: f331 f5bd 964a 7a3e ab30 c53c 41ef 5dbf
000000f0: 9ca0 04bf 5e5f c53e 8c41 5bbf d5ef f7be
00000100: deba 36bf 4aed d0bd d547 fabe 8435 0ebf
00000110: 34f9 113f 57bc 203f 8d11 0fbf 5754 43be
00000120: c9de 223f 7010 063e 1851 e4be 91b5 b6be
00000130: 27eb 4e3e 20ef acbe 757c c1be 7a08 ec3d
00000140: c326 1d3f 7944 4a3e e568 2cbf 5da7 2f3e
00000150: 7ad8 153f 0b65 723e b2ce aebe 8b5a 663f
00000160: 75ba cbbe 9062 8b3e 0b64 313f b672 1c3f
00000170: 6fba 243f 5424 0bbf 75be debd 201e 11bf
00000180: e2b5 db3e f97e dc3e ed35 2ebf 483f 40bf
00000190: e098 383e 3cf3 0bbf d4d8 ee3d 6d7a adbe
000001a0: fcaf 14bf 6336 71bd 7d13 06bf 6ba8 6bbe
000001b0: 3bbf dabe e6d6 18bf 1969 373f 1ebb c33e
000001c0: bb7e e73e a57c 543f 09ff 4e3e 216c 1e3e
000001d0: 21f1 7b3d f04f 4c3f 4de1 113f 0a3d 093e
000001e0: ff0f ae3e 1af4 003f 3ca4 f1be bfc7 99be
000001f0: 9ac8 fbbe e5f2 d8be 8fd8 6fbe 3502 99bf
00000200: 58da 023e 895b 2a3e 0aa4 0d3d 9c53 06bd
00000210: 95ba 843e 63f1 623e d49b 193d c330 b1be
00000220: 6633 ce3e 04e3 63be 4968 71bd ece3 20be
00000230: 128c b23e e75d 9abe 126d f63d 0ad7 3f3e
00000240: 779d a83e d0b5 a2be 9642 8d3d 0d72 a63e
00000250: 347d 643e 69c6 c33e 27bd 97be 8e3d a53e
00000260: 0a54 823e d8c1 9f3e 9a45 693e bc19 4a3d
00000270: 51f9 f9bc 88a3 1d3e 2a6c a63c fca4 b73d
00000280: beed b0be 0e16 05be 9182 513d 49f1 50bc
00000290: 42df 89be 0cd8 d8bc 14e3 053e b704 a83e
000002a0: 6eee 923d b983 7f3e da05 5f3e 7e45 83bc
000002b0: adab e8bc 804b 97be e33f f33b 3a78 c63e
000002c0: 846a 6dbe 0945 db3e 870a 01be 1106 a53e
000002d0: ecf3 a0be fc62 9c3e 267c a03e 7598 9ebe
000002e0: 97ac 2dbe 64fd 2f3e aada 8bbe 3714 93be
000002f0: 0bfb 983e 2f9f 503e ff19 863e 4900 b0be
00000300: 7113 883e 9189 843e 99b5 503e e795 b63e
00000310: b1f6 193d 9a14 dc3e c376 a03e 4f42 71bd
00000320: 2fcb 1f3f c249 19bd 681d 963e 7ed8 d4be
00000330: a1d4 5bbd f334 bbbe ffe3 8cbd ebc4 b73e
00000340: 70f5 ea3e 954b f3bd c1bd 8b3e 1acf bc3d
00000350: a224 0c3f 5e18 983d 6ccd 67bd 16d6 1c3f
00000360: 9976 643e 61ef 273d 3513 ec3e 5dbc bfbe
00000370: 90c0 96be fa51 b93e 50b0 a43e be2b 3a3e
00000380: 48ff b8be 1b54 acbe c6bb 7037 ed52 623d
00000390: 717b 79be 3b93 84bd 077c f73e a52f 043d
000003a0: a698 e13e 3ba6 793e 7903 943d da1a 013f
000003b0: efac aa3e 99c7 02bf 5a52 65be 54c6 eb3d
000003c0: 3e64 8cbd e27b 3b3f 7a53 61be ce86 e33d
000003d0: 76fc aabe b70e 413f 114f f13e 643f ccbd
000003e0: d908 dcbd f1e6 023f 70d4 48be e81a cabe
000003f0: d1bd d03d 69e8 0b3e b3da 163e 3bb2 5abf

decoder_rnn.weight_hh_l0 f4 [384, 128]
0.6681876 -0.1225133 0.029870732 0.11116741 -0.29550773 -0.47323918 0.647933 0.038251124
-0.17576787 -0.31160194 -0.28284803 0.09318519 0.13563707 0.26127902 0.13042942 0.13438258
-0.49380153 0.4270083 -0.20772223 0.04050985 -0.010680656 0.111431785 0.19636826 0.55818456
0.33241424 1.0247593 -0.042656936 0.1155286 -0.11986445 0.42513105 -0.9657803 -0.84625316
0.015918419 -0.37225127 -0.14589675 0.018930422 -0.101997666 0.3091459 0.47638947 -0.0100831175
0.015440193 0.71418846 0.13267827 0.334306 -0.022494052 0.06865152 0.10083653 0.051613644
0.147971 0.708734 -0.010709843 -0.12655562 1.0788734 0.44857255 0.18621361 0.01914034
-0.42089936 0.110905066 0.04697114 0.75208837 -0.12214637 -0.075133406 0.55824715 -0.078728974
0.013842081 0.11218715 -0.040541593 -0.0056697675 -0.35957688 -0.50931376 0.03242501 0.052253287
-0.29247785 0.2567159 0.05074194 0.09824001 0.044775505 10.010064 1.3204199 0.11892789
-0.20821476 -0.03255806 -0.49319497 0.029670665 0.08110009 0.103957355 -0.10991435 0.3837994
0.21969621 0.009500329 -0.2161443 0.21795982 -0.22746399 -0.051270653 0.19525822 -0.0066368897
0.09829953 -1.2284395 -0.06843344 -0.386766 -0.14262232 0.15620467 -0.10434215 0.10429138
0.42891043 0.11010915 -0.27472734 -0.08663063 -0.4421874 0.07188773 0.019981526 -0.39204717
-0.0019867064 0.04051993 0.061765064 -0.28715643 -0.049994133 0.013679528 0.39464986 0.19800447
-0.11969734 -0.5239809 0.32813737 0.021734178 0.06553637 -0.12296688 0.18086396 -0.4180377
-0.28047884 0.78200066 0.17490125 0.13335824 0.76928234 -0.19218594 0.55488163 -0.2337262
0.7207825 -0.6315906 1.7735181 -0.2154273 0.032757614 -0.5787013 -0.00086100627 -0.18731406
0.6030008 -1.3382524 -0.29582664 -0.44562232 0.39220747 0.048559047 1.0735049 1.5282344
-0.15298788 0.38415754 -0.52616394 -0.15925989 -0.40285656 0.64658624 0.8257072 -0.121336244
0.004453834 -0.20998792 -0.38865206 0.29039866 0.12725277 0.35245734 0.90169626 -0.3323029
-0.36242148 0.05764903 -1.1269555 0.6396597 0.51790494 0.22699156 -0.0819124 -0.61380106
-0.7651333 -1.104937 0.6646791 -1.0592414 -0.38298395 -0.26641157 -0.10906101 0.585914
-0.031389557 -0.2296758 0.35754734 1.1019593 -1.0345831 0.21308285 -0.06952116 0.004640949
-0.03582853 -0.33687252 0.16979036 -0.33817804 -0.005926211 0.656971 0.7411967 0.44405037
0.3689247 -0.58616364 -0.70868707 0.2179949 -0.03751202 -1.2007294 -0.492858 1.1781286
-0.04668555 0.3795697 -0.16205318 -0.49378902 -0.39129296 0.095986605 0.20787102 -0.24683452
-0.25829217 -0.0596687 -0.9023323 -0.67735 -1.6871622 0.7224342 -0.008961875 -0.26683408
-0.61349577 1.9493419 -0.4918975 -0.14706725 0.08820657 0.37755308 0.32536313 0.02247425
1.8388057 0.46308064 1.1589221 -0.8719536 0.1443537 -0.5416071 -0.1366901 0.44426093
-0.14636691 0.0019982967 0.48009294 0.034368422 -0.64455396 -0.15699157 -0.18007392 -0.20284411
-0.22700785 2.3966517 0.168141 1.4320184 0.4329007 -0.31659183 0.21760924 0.40554264
00000000: 580e 2b3f 41e8 fabd 77b3 f43c bdab e33d
00000010: ca4c 97be 684c f2be f0de 253f 36ad 1c3d
00000020: 7efc 33be 4a8a 9fbe 75d1 90be e0d7 be3d
00000030: 72e4 0a3e 5dc6 853e 4a8f 053e 969b 093e
00000040: 8ed3 fcbe d5a0 da3e 23b5 54be a8ed 253d
00000050: ebfd 2ebc 5936 e43d c314 493e 2fe5 0e3f
00000060: 3332 aa3e 502b 833f 0ab9 2ebd 429a ec3d
00000070: 7e7b f5bd c7aa d93e 613d 77bf 0ca4 58bf
00000080: 5867 823c b897 bebe f565 15be f913 9b3c
00000090: 27e4 d0bd 5f48 9e3e 52e9 f33e a933 25bc
000000a0: ddf8 7c3c 0ed5 363f d0dc 073e 282a ab3e
000000b0: 7245 b8bc 2b99 8c3d 6283 ce3d d468 533d
000000c0: b685 173e 976f 353f 5678 2fbc cc97 01be
000000d0: 8618 8a3f 4dab e53e c8ae 3e3e 34cc 9c3c
000000e0: 1f80 d7be 3222 e33d cf64 403d dd88 403f
000000f0: e027 fabd 8bdf 99bd 49e9 0e3f a83c a1bd
00000100: e5c9 623c 60c2 e53d f10e 26bd 75c9 b9bb
00000110: 761a b8be 6362 02bf 16d0 043d 8b07 563d
00000120: a8bf 95be 4470 833e c8d6 4f3d 0f32 c93d
00000130: 8566 373d 3929 2041 8503 a93f 7790 f33d
00000140: 4036 55be 9a5b 05bd 0d84 fcbe e50f f33c
00000150: ce17 a63d 98e7 d43d c61a e1bd 5b81 c43e
00000160: 0bf8 603e 45a7 1b3c ee54 5dbe dc30 5f3e
00000170: 52ec 68be 2d01 52bd c5f1 473e 447a d9bb
00000180: 4451 c93d 813d 9dbf d526 8cbd 3106 c6be
00000190: 960b 12be 1ef4 1f3e 56b1 d5bd b896 d53d
000001a0: 269a db3e e880 e13d 10a9 8cbe 666b b1bd
000001b0: 6366 e2be e039 933d 4cb0 a33c 68ba c8be
000001c0: 6733 02bb 3af8 253d 5dfd 7c3d 2b06 93be
000001d0: a6c6 4cbd 1920 603c 8c0f ca3e afc1 4a3e
000001e0: e123 f5bd 9d23 06bf 9f01 a83e e00b b23c
000001f0: ef37 863d 0fd6 fbbd 6734 393e 0a09 d6be
00000200: ec9a 8fbe 3231 483f 5019 333e 108f 083e
00000210: b0ef 443f 64cc 44be b90c 0e3f ec55 6fbe
00000220: 3485 383f ecaf 21bf a402 e33f f998 5cbe
00000230: d92c 063d c525 14bf 27b5 61ba 42cf 3fbe
00000240: 435e 1a3f db4b abbf 9776 97be 9c28 e4be
00000250: 6bcf c83e dae5 463d 9c68 893f 2f9d c33f
00000260: dba8 1cbe 4cb0 c43e aeb2 06bf 0615 23be
00000270: 3743 cebe ad86 253f 8c61 533f 237f f8bd
00000280: 78f1 913b 1307 57be 67fd c6be 22af 943e
00000290: 8d4e 023e 4a75 b43e 91d5 663f 9b23 aabe
000002a0: 4f8f b9be 6421 6c3d 1440 90bf bdc0 233f
000002b0: 6b95 043f 7a70 683e b0c1 a7bd 1122 1dbf
000002c0: c7df 43bf 936e 8dbf 6928 2a3f 3995 87bf
000002d0: 7916 c4be 1967 88be 615b dfbd 76fe 153f
000002e0: 5692 00bd 2230 6bbe 7210 b73e 010d 8d3f
000002f0: 386d 84bf 6432 5a3e 1c61 8ebd 1a13 983b
00000300: f0c0 12bd 8e7a acbe 86dd 2d3e ac25 adbe
00000310: a930 c2bb 402f 283f 11bf 3d3f 925a e33e
00000320: b3e3 bc3e d20e 16bf 846c 35bf 0e3a 5f3e
00000330: 34a6 19bd 80b1 99bf e257 fcbe ebcc 963f
00000340: 5939 3fbd f656 c23e 45f1 25be ead1 fcbe
00000350: 8d57 c8be a094 c43d 24dc 543e 30c2 7cbe
00000360: df3e 84be 2b67 74bd 40ff 66bf cf66 2dbf
00000370: eef4 d7bf 73f1 383f d4d4 12bc 7a9e 88be
00000380: 0f0e 1dbf 0984 f93f fdd9 fbbe cc98 16be
00000390: a5a5 b43d a34e c13e ff95 a63e eb1b b83c
000003a0: fc5d eb3f e818 ed3e 8f57 943f 5a38 5fbf
000003b0: 75d1 133e c3a6 0abf 7df8 0bbe 2b76 e33e
000003c0: 35e1 15be dbf5 023b bece f53e e7c5 0c3d
000003d0: 7d01 25bf 66c2 20be 4c65 38be 5eb6 4fbe
000003e0: bf74 68be be62 1940 282d 2c3e 614c b73f
000003f0: 29a5 dd3e 5318 a2be f5d4 5e3e 49a3 cf3e
