models/autoencoder.pt (torch, 742021 bytes, 12 tensors)

start_token f4 [1, 1, 64]
00000000: b544 efbb 5f76 1ebd 709a cfbc 1e7d a4bd
00000010: cd7c 89bd 7c02 e1bb f34a 31bc abe6 8e3d
00000020: 8135 99be c269 b2bb 6b88 5d3e 8eb5 92bd
00000030: b3bf 553d 7772 473b c3e6 423d 5272 1dbb
00000040: 2fe6 8cbd 823a 173d df60 b53d 07d8 febb
00000050: cf94 2abc 4bd3 a13d 3151 123c cd50 3ebb
00000060: b794 8cbb 56ea e63b 2a2e a23c 3905 5d3d
00000070: 135f a7bd 3c81 1fbb bc46 10bc 1066 8f3d
00000080: f905 be3d e974 9abd fb5d f0be de33 e5bb
00000090: 02d8 4f3c 4a1d 023c 7591 61bd 49e2 2cbc
000000a0: fe86 923b b861 263c d8c7 acbb 0474 263c
000000b0: eb19 153b 4ea2 b4bd 7c31 d0bb 4d29 60bd
000000c0: 49bb 533b b136 0ebc 4ef1 fd3d a087 3b3c
000000d0: 62d3 aa3a f7f3 923e e587 f3bb 4f30 0fbb
000000e0: b390 53bd b730 1b3e 2a4f 1c3c 1514 be3d
000000f0: 0bc3 393d 6018 dcbb 18d3 623b 421c 5f3d
-0.0073018917 -0.038687106 -0.025342196 -0.08031677 -0.06713257 -0.0068667512 -0.010821092 0.0697759
-0.29923633 -0.005444736 0.2163407 -0.07163535 0.05218477 0.0030433217 0.047583353 -0.002402444
-0.068798415 0.03692103 0.08856367 -0.0077772173 -0.010411455 0.07901629 0.00893049 -0.002903986
-0.004290189 0.007046978 0.019797403 0.05396006 -0.08172431 -0.0024338504 -0.008805927 0.07001889
0.09278483 -0.0754183 -0.469467 -0.0069947084 0.012685778 0.007941553 -0.05507036 -0.010551997
0.0044716587 0.010155134 -0.0052728467 0.010159496 0.0022751044 -0.0882002 -0.0063535552 -0.054726887
0.0032307676 -0.008680032 0.12399541 0.01144591 0.0013032968 0.28701755 -0.0074319714 -0.0021848863
-0.051651668 0.15155302 0.009540359 0.09281174 0.045352023 -0.006716773 0.0034610685 0.054470308

embed.weight f4 [184, 64]
00000000: b4de 6c3f b05f d0be 09ef fe3f e8ae 54bf
00000010: be8b 023f 4d8d 0a3e e14d 70be 2a4c 9ebf
00000020: 223a 0cbf 54d9 153f 8da8 82bf 70b4 33be
00000030: 3885 003f e667 75be 0187 0240 52eb 243f
00000040: ab82 c43e 313f 13bf 42ad e9be 6a7d 093e
00000050: 962a 9e3f 24b1 b93c ac25 e53e 7d99 b8bd
00000060: 6f9d 273f ee8b 09bf 0c58 4a3f d4b6 a83c
00000070: 8dbc d3bf 15fb 85bf 942e 54bf ed95 c43f
00000080: 24a7 7abf 50ef 8e3f 5b30 103e fe9c 0c3f
00000090: f253 26bf ed14 06bf 2808 86bf a911 943d
000000a0: 21e7 503d b594 873f e6af dcbf b251 23bf
000000b0: e8cf 88bf 4a66 04be 5859 0f40 4dbc a8be
000000c0: e89f bdbf 81f4 84bb c759 7bbf 5006 a8bf
000000d0: 721f 593f caca afbf 1512 b7bf 8197 5dbf
000000e0: 1fba f4be d360 05be 5b7b 83bf 3454 8d3f
000000f0: 0256 eb3e ffe1 a3bf 8808 efbe 110b 583f
00000100: 8a1f da3e ea0a 9dbf e001 21bf 2cd7 dc3e
00000110: 6669 7cbf 83a6 3840 e263 c0bd b761 33bf
00000120: 1ea5 6040 9479 bcbd 8785 2abf 6dbb 053f
00000130: f5dc fcbe 8e3b c3bd 5529 b93f 10dd 373f
00000140: a5c6 1e3f 69d9 c73b b116 dabe 66ca 77bf
00000150: 765f 0640 44be 693e a297 0240 8479 b53f
00000160: ec20 03c0 f58d 80bf f8c2 aebe a230 afbe
00000170: b43c e13c a63b 803f 498d 333e 26fa 6fbe
00000180: 755b 8bbf 7589 eabf 505e 143e ad55 9dbe
00000190: 453a 223f 0ee2 0240 ad6e 913f 9f7a 11bf
000001a0: 8796 853f 6af0 2b3f dbe1 85bb 08a0 61bf
000001b0: 4ec6 60bf 375f 83bf 9641 4c3e 4363 a43e
000001c0: 4a2a 6c3e e0ac 97bf 43cf febe d56f fcbe
000001d0: 7471 9f3f 83e9 28bf da75 f23e 2d84 fabf
000001e0: 10f0 b73f 4ce5 d03e 9f75 303f d6de 8abe
000001f0: 8abb 673f 8358 673f c653 0b3f 2d90 8c3e
00000200: 9f72 263f 2351 b43d c9b5 2d3f c65a c63f
00000210: f8be 413e 64cc b23f 669f eabf 08b8 57bf
00000220: 7720 ce3f 53ba ebbe 4cb8 1a3f d7c5 163f
00000230: 8f1f 2cc0 fd11 223e 538c fc3f 6ab6 0ec0
00000240: c959 8abf af8e edbf 8535 0340 f9ae 2e3e
00000250: baf0 2e3e f777 c3bd ae0f 87bf 89dd 48be
00000260: 347b cabf 1f5e 81be a51b 2a3f bccf 8dbf
00000270: a02f fd3e 46e7 0c40 f1ce 0540 19e8 94be
00000280: 4856 033f cf59 b33c 9aa6 033f ef2e bebf
00000290: c2b3 553f 5b0d cd3d f1f5 0fbf 7521 883f
000002a0: e75f e3be bc36 0440 069e 1c3e b41b a53f
000002b0: 52de a0bf c75e b0bf 9445 1bbf 3cb0 023f
000002c0: b094 10bf 428d 76bf e9da 2b3f 661b d43e
000002d0: 43b7 11c0 b6c8 643f 0ce4 773f f2e8 1b3f
000002e0: d7f2 a2be 40c7 8f3f 6469 15bf 227b e73f
000002f0: 517a 28bf fcac 5a3e 9f79 a03e 0fca e33e
00000300: 7e56 0340 3e6c 3f3f 746f b8bf 5f08 54bf
00000310: 1e30 c03d b39a f73d 3b08 ec3e fb31 16bf
00000320: 3a72 43bf 0051 313f c524 9fbf e5ab 49bf
00000330: 9390 21bf 63bc 6abf d2b2 e43f bc4f 093f
00000340: 7e3a 4cbf b60e cfbf af9e 1dbf 00c3 fd3e
00000350: b7eb 63be ac69 5bbd b6db acbf d525 47bf
00000360: 44e1 f7be b0ca 41bf 5e83 653f 1502 163e
00000370: 1812 03c0 2888 193f 4861 ad3d e201 a9be
00000380: e9d4 f7bf 675a bd3e e20b 24c0 a102 e5bf
00000390: 8a7e 1d3f e78d cebe b035 7a3d 4471 243f
000003a0: a2d6 1340 47e9 353f 7313 c03f 9be7 093f
000003b0: ea15 c93f e703 90bf f20c 8b3e 7932 46bf
000003c0: eafb 06be 52cc b23e 0ba6 c83e 7f4e 81be
000003d0: 30fc 153f 9e50 993f d5ba 97bf 4bfb e2be
000003e0: 8550 91be 6c85 2f3d 05ac 283f 9615 92bf
000003f0: 8b45 d43d 5230 843e 3fb6 62be 2b49 663e
0.9252732 -0.40698004 1.9916698 -0.83079386 0.5099448 0.13530464 -0.23467208 -1.2366993
-0.54776204 0.5853474 -1.0207688 -0.175493 0.50203276 -0.23965415 2.03949 0.6442157
0.38380942 -0.575183 -0.45639998 0.13426748 1.2356746 0.022667475 0.44755304 -0.090136506
0.654746 -0.5372914 0.790406 0.020594992 -1.6541916 -1.0467249 -0.8288357 1.5358254
-0.97911286 1.1166782 0.14080946 0.5492705 -0.6497184 -0.5237568 -1.0471239 0.07229931
0.05100167 1.0592257 -1.724118 -0.6379653 -1.0688448 -0.12929645 2.239828 -0.32956162
-1.4814425 -0.0040574674 -0.98183864 -1.3126926 0.84813607 -1.3733761 -1.4302393 -0.865593
-0.4779825 -0.13025217 -1.027202 1.1041322 0.45964056 -1.2803344 -0.46686196 0.84391886
0.42602187 -1.2268956 -0.62893486 0.43132913 -0.98598325 2.885163 -0.09394051 -0.70070976
3.510078 -0.09202877 -0.66609997 0.52239114 -0.49387327 -0.095328435 1.4465739 0.7182169
0.6202186 0.0060989154 -0.42595437 -0.9679321 2.0995765 0.22826487 2.040505 1.4177709
-2.0488844 -1.0043322 -0.34133124 -0.3421679 0.027494766 1.0018203 0.17534365 -0.23435268
-1.0887285 -1.8323199 0.14489102 -0.30729428 0.6337016 2.0450473 1.13619 -0.5682773
1.0436562 0.6716372 -0.004085762 -0.88134813 -0.8780259 -1.0263432 0.19946894 0.3210698
0.23063007 -1.1849632 -0.49767503 -0.4930407 1.2456498 -0.6598131 0.4735554 -1.9571587
1.4370136 0.4079994 0.68929476 -0.27123135 0.90520537 0.90369433 0.54424703 0.27453747
0.6501865 0.08804538 0.6785551 1.5496452 0.18920505 1.3968625 -1.8329895 -0.84265184
1.6103657 -0.46040592 0.60437465 0.5889563 -2.6894262 0.15827174 1.9730324 -2.2298837
-1.080865 -1.8559169 2.0501416 0.17058934 0.17084017 -0.09544366 -1.055166 -0.19615759
-1.5818849 -0.2526712 0.6644843 -1.107902 0.49450397 2.2016158 2.0907557 -0.29083326
0.5130353 0.02189341 0.5142609 -1.4858073 0.83477414 0.10012313 -0.5623465 1.063521
-0.44409105 2.0658407 0.15294656 1.2899079 -1.2567847 -1.3778924 -0.6065304 0.5105016
-0.5647688 -0.9630929 0.67130905 0.41427153 -2.2768104 0.8936876 0.96832347 0.6090232
-0.31825897 1.1232681 -0.5836394 1.8084452 -0.6581164 0.21355051 0.3134279 0.44490096
2.052154 0.7477454 -1.4409013 -0.82825273 0.093841776 0.120900534 0.4610003 -0.58670014
-0.7634617 0.6926422 -1.2433096 -0.78777915 -0.6311123 -0.91693705 1.7867072 0.5363729
-0.7977675 -1.6176364 -0.61570257 0.49562836 -0.22257887 -0.053567573 -1.350455 -0.777921
-0.48414052 -0.756999 0.89653575 0.14649232 -2.0479794 0.5997338 0.084658206 -0.3300925
-1.936185 0.36983034 -2.5632253 -1.7891427 0.6152121 -0.40342638 0.061086357 0.6423533
2.3099751 0.7105908 1.5005935 0.53869027 1.5709813 -1.1251191 0.27158314 -0.77420765
-0.13182035 0.3492151 0.3918918 -0.252552 0.5858793 1.1977727 -1.1853892 -0.44332346
-0.28381744 0.04285185 0.6588748 -1.1412838 0.10364827 0.25818115 -0.22139834 0.22488849

encoder_rnn.weight_ih_l0 f4 [384, 64]
00000000: dc0f f43e 7b21 0f3f f590 e53d d327 25be
00000010: a555 e83e af98 603e 6a4d 993e fe25 c73c
00000020: b001 023d 1b74 df3e 7a33 75bc 71a0 97bd
00000030: ced2 883d c2bd edbe 6b78 82bd b852 ed3e
00000040: 2574 7bbd bde3 9cbe f058 a53e b521 c1bd
00000050: eb2d d13e 85fc a43e d10d b53d 10c2 13bf
00000060: 9358 c2be 5c72 3b3f 499a 243e ec7f f6be
00000070: fea3 533e fd51 0cbf 1dad 6b3d eaab 87be
00000080: 0d34 9dbe abdd d0bd ae63 b93e 2f1d 15be
00000090: 081d d4bd 88f1 d63e d6cc 113c 8b9a afbc
000000a0: 947c 9a3e 6d8f cc3d 3257 d1bd 2561 be3e
000000b0: ce74 c33c e85b 33bc 3302 fe3d 13e1 363d
000000c0: 22a7 213f e6f7 4b3e 8d76 67be e21b 7dbe
000000d0: c3d1 dd3b 3560 d53e a362 69be 07a2 6fbe
000000e0: b135 b9be 697b 83bd ceb0 573b a633 09bf
000000f0: df32 0bbe d1a4 10bf c2a2 2cbe a2ef f5bb
00000100: acdd 113e 5fbd c93c 5a4c 8e3d 29dc 1f3c
00000110: 4646 8dbe 69d1 273d 4e90 77be 05f9 46bc
00000120: 7690 cb3c fd3c d6bc 35cf 273e f290 363e
00000130: dc40 90be 9885 d33c e2ab 78be 9d67 9ebd
00000140: b7ee 0cbf da80 053e 57e8 e9bd e960 443e
00000150: 9abd 693e 2e8a c13e c26d d53e 6b89 273c
00000160: f86e be3d e390 3d3e 9d4d 803d 8aa8 a73e
00000170: 6d19 13bf 3a16 07be d455 65be 1599 573e
00000180: 65fe fdbe 4b74 a33c f492 1fbc d5f1 2f3e
00000190: 00ff 2c3b 881b 9d3e 5e8d e5bd a65e 633e
000001a0: 9ae9 c73c ab5e 78be 0da9 913e 01c4 1cbe
000001b0: 5ee7 02be 19f7 4abe c6f5 73be 8ff9 db3c
000001c0: bf8d c03d 307e b23e 62c9 99be 58ed 6dbd
000001d0: fe76 723e ccfb 14be b715 debe 9c31 35bd
000001e0: ed6b 20bf 22d4 073d 0611 48be 4c5e 303f
000001f0: 56f7 843e 835b fd3d 9128 eb3e 8705 c8bd
00000200: a685 9e3e 30aa 92bc e426 74be 97e4 2bbc
00000210: 50b6 b33c 79c4 a8be d1ca 63be 12a9 f9bc
00000220: 7b04 be3e 8405 e13e fc04 743c cb69 ce3e
00000230: c980 8dbd b8e5 a7bd 7298 c6bd 2562 37be
00000240: a85e 1bbd 084c e43c bd1c a43e 148a c83e
00000250: 1689 d73d 8d28 cb3c c9fa f6bd e008 82be
00000260: 74d1 4ebe fbc7 063f d17f a83e dd20 adbe
00000270: 3d97 083f b9d5 293b abe1 873d 9724 e03e
00000280: 8a93 9abd 878d 99be ef31 543e c13e 2ebe
00000290: 2111 2ebe 6b6e b73e 73b7 86bc 0e4f 283e
000002a0: 6938 1fbe ae73 b7bd 86a5 aabc e476 bcbe
000002b0: 3339 413e d494 b3be 33fe 923d e5d2 45be
000002c0: 06d6 8a3e 89b6 993e cb41 de3d b277 9e3e
000002d0: 48e0 debb e298 d83e feab a0bc 033d 883e
000002e0: 611a 923c 2ae9 f7bd 0a86 33be a144 bdbd
000002f0: 569f 613e 1f70 de3d 5cc5 4cbe b577 26be
00000300: 79d4 ddbd 0cd8 8f3d 20fd a8bd ac96 84bb
00000310: 54bf 75bd 9a18 fc3d f2bf 4c3e 46e0 ffbd
00000320: aaf1 6b3c 4cd3 0abd 777b ddbd 8a7a b8bc
00000330: db5b ec3d 16b6 46bc 81d7 913c 13aa 8e3d
00000340: a487 adbc 9b55 7c3d 5204 273e 49e4 adbc
00000350: 9ad4 b33d 9bda 3cbe a73f a83c b41e 823b
00000360: a41b 833d d2db 583d 36ff 1b3c 3191 313d
00000370: ccd5 b6bb 5281 3c3e 0728 fb3d 4a42 953c
00000380: 6ecc b33d ee0d 913d 479f 293d 41ec dabd
00000390: 689a f8bc 83d2 0e3d e50c 843e 38b6 8cbd
000003a0: 8e13 883c afa9 95bc 3d32 973c 13ce 42bb
000003b0: 1cc8 693d d082 183d abbd a73d 7fb2 b83c
000003c0: ee31 af3d c159 09bd 3364 243d a5b5 0e3e
000003d0: f265 84bd e5c3 57bd 4f97 41bd 73d0 99bd
000003e0: b2cc 373e 71d7 06be 3d0e eabc 11fb 01bd
000003f0: 9be0 a93b 352a 603c dcdd a7bd e17b 7a3d
0.4766835 0.5591046 0.11209289 -0.16128473 0.45377842 0.21933244 0.29941875 0.024310108
0.03173989 0.4364327 -0.014965886 -0.07403649 0.06680833 -0.46433836 -0.06370624 0.46352172
-0.06139006 -0.306425 0.32294416 -0.09430257 0.40855345 0.32223907 0.08840526 -0.5771799
-0.37958202 0.73221374 0.1607448 -0.48144472 0.20668027 -0.54812604 0.05753814 -0.26498348
-0.30703774 -0.1019853 0.36208862 -0.14561914 -0.103571 0.4198115 0.008898934 -0.021435997
0.3017317 0.09988294 -0.10221709 0.3718349 0.023859408 -0.010947205 0.12402763 0.04464824
0.6314565 0.19918784 -0.22603817 -0.24717668 0.0067693903 0.41674963 -0.22791533 -0.23401652
-0.36173776 -0.06420023 0.003291178 -0.53594434 -0.13593625 -0.5650149 -0.16858962 -0.007505373
0.14244717 0.024626432 0.06948157 0.00975708 -0.27592677 0.040971193 -0.24176142 -0.012144332
0.024849158 -0.026152128 0.16387637 0.1782873 -0.28174484 0.025820538 -0.24284318 -0.077346064
-0.5505175 0.13037434 -0.114212684 0.19177593 0.22826234 0.37800735 0.416853 0.010225634
0.09298509 0.18512301 0.062648036 0.32745773 -0.5746067 -0.13192073 -0.22396022 0.2105449
-0.4960815 0.019952914 -0.009739626 0.17182095 0.002639711 0.30685067 -0.11208604 0.22204074
0.024403382 -0.24254863 0.28449288 -0.15309145 -0.12783572 -0.19820823 -0.23824224 0.026852397
0.09402036 0.34861898 -0.30036455 -0.058087677 0.23678204 -0.14549178 -0.43375942 -0.044236764
-0.6266468 0.03316129 -0.19537744 0.68893886 0.25969952 0.1237097 0.45929387 -0.09766679
0.3096134 -0.017903417 -0.2384296 -0.010491512 0.02193752 -0.32962397 -0.22245337 -0.030476127
0.37112793 0.4394952 0.0148937665 0.4031509 -0.069093294 -0.08198112 -0.096970454 -0.17908533
-0.037932068 0.027868286 0.32053176 0.39167845 0.10524194 0.02479961 -0.12059552 -0.25397396
-0.20197088 0.52648896 0.32910016 -0.33814135 0.5335577 0.0025914742 0.066348396 0.43777916
-0.07547672 -0.2999079 0.20722173 -0.17016126 -0.16998722 0.3582643 -0.016444897 0.16436407
-0.15548863 -0.08957611 -0.02083088 -0.36809456 0.18869476 -0.35074484 0.07177391 -0.19318731
0.27116412 0.30022076 0.10852393 0.30950695 -0.0068016388 0.4230414 -0.019613262 0.26609048
0.017834844 -0.121050194 -0.175316 -0.092416056 0.22033438 0.10861229 -0.19997162 -0.16256602
-0.108315416 0.070236295 -0.08251405 -0.004046282 -0.059996918 0.1230938 0.19995096 -0.12493949
0.014400879 -0.033892915 -0.10814565 -0.022519369 0.115409575 -0.012128374 0.017802956 0.06966033
-0.021182843 0.061605077 0.16310242 -0.021227019 0.08780785 -0.18442766 0.020538164 0.0039709453
0.064017564 0.052944012 0.009521296 0.043351356 -0.005579686 0.18408707 0.12263494 0.018220086
0.08779226 0.07082735 0.041411664 -0.10689593 -0.030347064 0.03486873 0.25791088 -0.06870693
0.016610887 -0.018269388 0.018456573 -0.002972488 0.057075605 0.037234128 0.08190473 0.022546051
0.08554445 -0.03353286 0.04013462 0.1393648 -0.06464757 -0.052677054 -0.04726344 -0.07510462
0.17949179 -0.13168122 -0.028571242 -0.031733576 0.0051842458 0.013681938 -0.08196613 0.061153296

encoder_rnn.weight_hh_l0 f4 [384, 128]
00000000: 6313 d93f 2538 13be 7e29 89be 9486 45bd
00000010: a6f5 823e 997c 36be 0d76 37be 90ee 2d3e
00000020: d129 8c3d 3cd4 31be abc9 b73e 88f3 6abd
00000030: fb5e fdbe e975 be3c cf35 db3c fb4d e93e
00000040: b6d7 3fbe 5d63 9a3c 6a0f 433d c0da bbbc
00000050: 46b6 593d ce33 013e 08b7 47be 16a2 b2bd
00000060: f87d 043d 1de7 54bd 463d 733e f0c3 913d
00000070: 302e 1cbe 4a14 5a3e 3953 753e 5bc5 85be
00000080: 5503 49be 8d0c 93be 066d 16bf 2214 2ab9
00000090: bab2 003c a6fe 483d a4ef 583e fd22 10be
000000a0: 6477 943c 48cd 05bf 1663 a73d 9dc5 213e
000000b0: 83ce 97bb 84b1 a9bd dc7a 793d 8e40 95bd
000000c0: ae9d 42bd 2de5 c7bd e20a b43d 0d2c f3be
000000d0: 7715 b73d 57b0 b3bd 1575 11be cd3d 5fbc
000000e0: 18fb 143d d60b 26be 04a0 a6bd 477c 1a3d
000000f0: 9142 67bd e5f6 093e b74e 903e 4e05 7a3e
00000100: a441 a43b 67c8 5abe 0d68 663d 97b4 8ebd
00000110: a742 6e3d 77cd 2b3d ed53 4f3e 612d 0cbf
00000120: d663 943e f0d0 523d 68d6 a63e 3764 753d
00000130: 2efd 24be 6668 92bd 8eba f5bd 25f2 883e
00000140: bbd4 88bc c13e 81bc 38c1 1fbf 4572 693e
00000150: 5517 883c 3178 003e d318 363b 14d9 85be
00000160: bf75 90bf 3007 87be 27b1 6cbe 28ff b6be
00000170: f3a2 abbc acc0 1fbd a0b2 083e 8e8b c13d
00000180: 0887 7cbe 59cc 3b3d 23d5 02bd b631 adbd
00000190: c84f 46bd 2035 023e 31c6 323d 8929 d83d
000001a0: 6b28 35bb bbf7 103c 054f b93d 7369 f2bd
000001b0: 2375 4a3e 28f8 c1bc c01f dcbd d059 8a3e
000001c0: 1a98 563e f008 5cbe e2f2 8a3e 337d a53e
000001d0: 857a 38be 8e5c ac3e a8bd f1bd 8f78 d43d
000001e0: 28e6 5c3e d64e 423d 77dd 37be 53e3 9bbc
000001f0: 15da 6dbe 6120 28bd c1b9 78bf 7940 ac3e
00000200: 3664 efbd 8907 903e 5f4d 86be 83dc 0ebe
00000210: 03d7 2cbf 647c 59bf 7829 af3e 9feb ec3e
00000220: a866 23bf 1ae5 9bbe 9917 cf3c 34c2 0dbf
00000230: 8e1d 47bf 6ffe 1e3f 0baa 61bf c97c b83e
00000240: 105e a33e fa2e c13c 9b93 ffbd 6b24 343f
00000250: 4afa 0abf da52 22bf 314f 9e3d 7659 d53e
00000260: 2f80 babe f3a7 8fbe 19c5 643e 5aa8 30bd
00000270: 04ef 38bf 9b48 a13e 016a 0c3f 0b8f d5be
00000280: 9464 afbe 4c46 e9bc e255 fe3e 6fb4 a93e
00000290: 3215 70bc 9c36 dc3e d538 5b3e 2791 23be
000002a0: 876f 39bc 03df ab3e 56fe e13e 24f9 e33d
000002b0: 9c61 db3d 11b1 dfbb 12a9 dc3d d111 eebd
000002c0: addf 2d3e ae83 6abc ddbd a0bd aae1 cfbd
000002d0: 742d f43e f166 68be e582 b03e fc1d c2bd
000002e0: 1a11 4fbe fc83 b5be a2ee 4ebf 026a e4bb
000002f0: 7c81 3cbf 0f88 a1be 8a17 b33e d0c2 b03e
00000300: 9434 c9bc a610 a43e fe58 463e d802 8cbe
00000310: 9b8f 3bbc 604c 223e 13d2 8ebe 1302 283e
00000320: b66a 7fbe 3689 cf3e f88b d93d 70db d5be
00000330: bc6c 463d e6ec 2e3e 2e80 ac3e 4c03 733d
00000340: 13a2 fe3d ca33 0ebf 5236 06be 0cc2 a83e
00000350: c941 a3be 9906 063e 9678 72bd 5821 a43e
00000360: 0517 8fbe 98d0 5bbe 94a1 8a3d d842 42be
00000370: 7592 f03d da06 8a3d 589a ee3d 3186 b1be
00000380: a21e ccbe 84a8 dfbe d88b bebb 71ef d73e
00000390: f50f 473e 5760 e6bd 0ad5 023e ca44 5bbe
000003a0: 8e6f 20be 27e0 20be 2303 c8be c6e8 bbbe
000003b0: 4e79 ac3e 03ff 42be d0ad 933e 0fdf 02be
000003c0: 93b7 6c3e 4143 a8bd 1a27 edbe ecd9 883e
000003d0: 67e8 79be 20ed 59be 083e 063d d613 25bd
000003e0: 4579 1f3f b0c8 ce3a 2600 efbe 0bf3 d5bd
000003f0: 987a 05bf c744 0d3e 2ffa ddbe 5a88 ff3d
1.6959041 -0.14376886 -0.2678947 -0.048224047 0.2557804 -0.17820968 -0.17916127 0.16985536
0.06843913 -0.17366117 0.35896048 -0.057361156 -0.49486527 0.023249583 0.026759056 0.45567307
-0.18734631 0.018846208 0.047622122 -0.022931457 0.053152345 0.12617418 -0.19503415 -0.08722322
0.032346696 -0.05197822 0.23753843 0.0711745 -0.15251994 0.21296802 0.23957528 -0.26127133
-0.19630177 -0.28720513 -0.58760107 -0.00016219963 0.007855112 0.049070977 0.21185166 -0.14075847
0.018123336 -0.5226636 0.08173196 0.1579804 -0.0046327724 -0.082858115 0.060908183 -0.072877035
-0.047513656 -0.09760509 0.08791138 -0.47494546 0.08939641 -0.087738685 -0.1420482 -0.013625574
0.036372274 -0.16215453 -0.08135989 0.037716176 -0.056459967 0.13473089 0.28185055 0.24416086
0.005012708 -0.2136551 0.056251574 -0.069680385 0.058169033 0.041943993 0.20246859 -0.5475674
0.2898242 0.05146879 0.32585454 0.059910025 -0.16112205 -0.07148819 -0.11998473 0.26747242
-0.016703 -0.015776994 -0.62404203 0.22797497 0.016612688 0.1254585 0.0027785792 -0.2614218
-1.1285933 -0.2637267 -0.23114453 -0.35741544 -0.020951724 -0.039002106 0.1334939 0.09450446
-0.24660885 0.045849178 -0.031941544 -0.08456747 -0.04841593 0.12715578 0.04364604 0.10554797
-0.00276425 0.008848126 0.09048275 -0.11836519 0.19771247 -0.0236779 -0.10748243 0.27021646
0.2095646 -0.21487784 0.2713843 0.32322082 -0.18015487 0.33664364 -0.11803752 0.10374557
0.21572173 0.047438465 -0.17955576 -0.019029295 -0.23227723 -0.041046504 -0.9715844 0.3364294
-0.116890356 0.2813075 -0.26230904 -0.13951306 -0.6751558 -0.8495543 0.34211326 0.46273515
-0.63828516 -0.30448228 0.025279807 -0.55374455 -0.7777947 0.62106985 -0.8815009 0.36032704
0.31907701 0.02358197 -0.124793254 0.7036807 -0.5428816 -0.6340767 0.07729948 0.41669816
-0.3642592 -0.28057823 0.22340812 -0.043129303 -0.7223971 0.31500706 0.5484925 -0.41710696
-0.34256423 -0.028475903 0.49674898 0.33145472 -0.014653491 0.43010414 0.21408398 -0.1597334
-0.011318094 0.33568582 0.44139355 0.11131504 0.10711977 -0.006826528 0.10774435 -0.11624492
0.16979857 -0.014313621 -0.078487135 -0.10150464 0.47690928 -0.22695519 0.34474865 -0.09478375
-0.20221367 -0.3545226 -0.80832875 -0.006970645 -0.7363508 -0.31549117 0.34978896 0.3452363
-0.024561204 0.32043952 0.19369885 -0.2734592 -0.011447812 0.15849447 -0.2789465 0.16407041
-0.2494305 0.4053437 0.106224 -0.4176898 0.04844354 0.17082557 0.33691543 0.059329316
0.12433257 -0.55547774 -0.13106659 0.32960546 -0.31886128 0.13088454 -0.05919703 0.3205669
-0.2794725 -0.21466291 0.067691 -0.18970811 0.117466845 0.06739588 0.116505325 -0.34672692
-0.3986712 -0.43683255 -0.0058150105 0.42174867 0.19439681 -0.11248844 0.1277658 -0.2141296
-0.15667555 -0.15710507 -0.39064893 -0.3670103 0.33686298 -0.19042592 0.28843546 -0.12780403
0.23116903 -0.08215953 -0.46318895 0.2672876 -0.2440506 -0.21281862 0.032774 -0.04030212
0.6229442 0.0015776362 -0.466798 -0.104467474 -0.5214019 0.13795768 -0.43354937 0.12477179

encoder_rnn.bias_ih_l0 f4 [384]
00000000: a450 e53a c716 883e 280f 0bbe 5a3d 21be
00000010: b9f0 053c 51f1 263d 5e92 b4bc 77a0 89be
00000020: f8d4 1d3e 396f 3cbe 3786 283d 8f2b 3f3e
00000030: d02a cabc 2ee7 523e d9bf 22be a4a9 933e
00000040: 8305 e03d a228 00be d29c 8d3c 89b3 00bd
00000050: 2747 203e b6e5 a43e 4576 5c3e a4a7 5fbd
00000060: 62fc f33e 1fcd 8c3d 0c76 423e 6cdf 7d3e
00000070: 56e6 3dbb 9a13 08bc 61a1 093d b000 273e
00000080: ad30 9d3d 9632 bebb 3d9c e33d 167a fcbc
00000090: a241 af3d 4151 1f3e a770 233f a894 90be
000000a0: 05ee 64bd 6c38 b73c 335e 263d 3b0f 8dbd
000000b0: 472b ab3d cd8a ae3c 7c61 343e 1371 313e
000000c0: ef4d 113f c9c2 943e 1b1b 39be d0e3 193e
000000d0: a98b 153d 957d 5e3d b10b 47be d15e 5fbe
000000e0: 09bd 883d 36a5 92be d0b4 14be cc08 1dbe
000000f0: c768 f13c 294e 4c3b 7c51 a3bd 8450 85bd
00000100: b563 e2bc a91f cf3d 137f 58be c80e e5bd
00000110: 82ea 81bb 8596 c23e 1405 a13d 34c9 893d
00000120: 3376 323e 581a b7bd 4104 58bd 9123 56bd
00000130: 32f1 0fbe fce0 c43c 2b77 ec3c 854e 433e
00000140: 1ba5 efbc 90aa 053d a166 d9bd c830 5c3e
00000150: 50ef 0a3e 8549 933d 27aa 3dbe 26d4 18be
00000160: 56b5 18be 4dd2 33bd a176 143e 4792 603e
00000170: 841a 0bbe 656c 5e3e 15c6 263e f88c 873e
00000180: 9749 91bd c8b9 54be 0067 b5bc af8c b8bd
00000190: c8d4 033d eebd 97bd 7b39 a23d 9074 0e3e
000001a0: 4db2 a6be e371 dcbd 4eee ee3e 4ad7 a0bd
000001b0: 7c6f 333e bea7 bcbd a28f 1a3d eb09 1d3e
000001c0: 8e67 02bd bcaa 883d 8bce c5bd c12f 693e
000001d0: 772e 9c3b d5bd f2bd 7824 323e abea 52bd
000001e0: d210 fbbd 5430 913d 2343 14be d6c9 bf3e
000001f0: 0b07 9e3e 48ae 11bd cacd 1bbd 2ad0 0b3c
00000200: 0e33 1d3f 888f 9c3e b428 0e3f 1cf9 043f
00000210: f677 5e3f 3f40 efbd 11c5 393f 7b5a 113f
00000220: 68ed b53e 18db 3d3f d3de b23e 16da f33d
00000230: 3cdf 163f c5a4 5b3f cba0 0d3f da2c 993e
00000240: 20b4 9f3e 4f28 423f 367b 443f 2197 b13e
00000250: 1974 633e 395f 773f 9eb0 2d3f e9ef 0d3e
00000260: a5f9 00be 2556 4c3e aadb 473f c4bb e13e
00000270: 94bd 253f 2363 583f 0f95 633f 98d8 eb3e
00000280: cca3 2b3f c817 1d3f eb75 a33e d7a9 ee3e
00000290: d7d2 493e 387c 0b3f cfec 393f a5e0 f83e
000002a0: a905 c73e 3142 573f f40c d53e 06d7 6a3f
000002b0: 648a 2e3f 698d 8d3f a54b 053f 7561 b33d
000002c0: f51a 92bc d835 663f 38c2 b73e c5cd 0f3f
000002d0: 7442 013e 89b5 553f 0db5 663f fd37 003f
000002e0: 65b7 183e f4f2 b93e 7668 103f b6ec 273f
000002f0: 6e8b 4a3e 6b27 933d 1ca4 003f 252f 353f
00000300: 8ecb c23d 3ffc e93e f5c7 c33e 88a3 0d3f
00000310: 88cb 103f ffde cdbd 3ee7 253f 52a3 953e
00000320: 9a0e 633e 4ff4 243f 52dd 123f d09e 0f3f
00000330: e55a 9e3e 9487 f23e 2b39 953e fafd dc3e
00000340: 4b8b 963d 3af6 9bbe 9b7e 293f 8bb0 733f
00000350: 5e07 ce3e e53b 383f 38c0 ce3b c059 b03e
00000360: 2f7f dc3e e64e 0d3f 9697 773e 4a4d 833e
00000370: b26b 973e f7fb babe 971c 673f 53a3 04bf
00000380: 3f9e 9e3e a8ea dc3e 5da9 b23e 0cfa 003f
00000390: 1a1a 343f 335c 1e3e 2694 083f ec89 7b3e
000003a0: 305b 4e3e 4cae ac3e bd8c 83be 582e 6b3f
000003b0: 38f2 1a3f 0ba0 a73e 9887 043f 1b17 f63e
000003c0: 00f4 453f 1a58 303f 5c1d ba3e e94b 0b3f
000003d0: 0482 4a3f f4f2 2a3f 68bb 913e 68b9 e83e
000003e0: 9540 073f 20b2 2e3e 6ef2 803e 73fb 26bf
000003f0: d3d0 023e 0e5d b93e 6b48 5e3f e982 6a3f
0.0017495346 0.26579878 -0.1358 -0.1574606 0.008175069 0.04075748 -0.02204245 -0.26880237
0.15413272 -0.18401803 0.041143622 0.1866896 -0.024678618 0.20596 -0.15893497 0.28840363
0.10938551 -0.125155 0.017286692 -0.031421218 0.15652142 0.32206506 0.21529491 -0.054603234
0.4765349 0.06875061 0.18990344 0.2479226 -0.0028976402 -0.008305455 0.03360117 0.16308856
0.076753 -0.00580437 0.111137845 -0.030819934 0.0855744 0.1555834 0.6384377 -0.28238416
-0.055891056 0.022365771 0.04061718 -0.068876706 0.08357864 0.02130642 0.17615312 0.1732829
0.5675954 0.2905486 -0.18076746 0.1502831 0.036510143 0.054318983 -0.19438054 -0.21813513
0.066766806 -0.2864167 -0.145221 -0.15335387 0.029468907 0.0031174517 -0.07974526 -0.06509498
-0.027635435 0.101134606 -0.21142225 -0.1118446 -0.003964723 0.38005462 0.07862297 0.067278296
0.17427902 -0.089405715 -0.05273843 -0.052280013 -0.14056852 0.024033062 0.028865417 0.19072922
-0.029253533 0.032633364 -0.10615278 0.21502984 0.13567853 0.07191757 -0.18521939 -0.14924678
-0.14912924 -0.04390173 0.14498378 0.219308 -0.13584334 0.21721037 0.162865 0.26474738
-0.07094114 -0.20773995 -0.02214384 -0.09011208 0.032185346 -0.07409273 0.0792112 0.13911653
-0.32557908 -0.1076391 0.46666187 -0.07853563 0.17522997 -0.09211682 0.037734635 0.15335815
-0.03183704 0.0667319 -0.096585356 0.22772123 0.004766281 -0.11852614 0.17396724 -0.051493328
-0.122590676 0.07089296 -0.14478736 0.37458676 0.30864748 -0.0355666 -0.038038053 0.008533517
0.6140603 0.30578256 0.5553086 0.5194261 0.86901796 -0.11682176 0.72566324 0.5677869
0.3553269 0.74162436 0.34935626 0.11906831 0.5893438 0.85798293 0.55323476 0.29917032
0.31192112 0.75842756 0.76750505 0.34685615 0.22212256 0.96629673 0.6784762 0.1386105
-0.12595232 0.19954737 0.78069556 0.44088566 0.647424 0.8452627 0.8889932 0.46063685
0.6704681 0.6136441 0.31925902 0.46613953 0.19709335 0.5448642 0.72626966 0.4860889
0.38871506 0.84085375 0.41611445 0.9173435 0.6817992 1.105878 0.5206855 0.08758823
-0.01783512 0.8992591 0.35890365 0.56173354 0.12623006 0.83480126 0.9012001 0.5008543
0.1491371 0.3631817 0.56409395 0.6559557 0.1977975 0.07185253 0.5025041 0.7077506
0.09511481 0.4570026 0.38238493 0.55327654 0.56560564 -0.10052299 0.6480597 0.29226166
0.22173539 0.64435285 0.5736896 0.56101704 0.30928722 0.47369063 0.29145178 0.4316252
0.07350787 -0.30461293 0.6620881 0.9519126 0.40239996 0.7196639 0.0063095354 0.34443474
0.43065783 0.55198514 0.24178919 0.25644904 0.29574353 -0.3652036 0.90278 -0.51811713
0.30980107 0.4314778 0.3489484 0.5038154 0.7035233 0.15464859 0.53351057 0.24564332
0.20151973 0.33726728 -0.25693312 0.9186759 0.60525846 0.3273929 0.517694 0.48064503
0.7732544 0.6888443 0.36350524 0.54412705 0.7910464 0.6677697 0.28463292 0.45453954
0.5283292 0.17060137 0.2518496 -0.6522743 0.12774973 0.36203808 0.8682925 0.91606003

encoder_rnn.bias_hh_l0 f4 [384]
00000000: a87c 2dbd 3742 d23e 8b90 94bd ef38 27be
00000010: b282 0c3c 522d f33d 783b 83bd 176e 99be
00000020: 1a22 733c f1fc 1bbe 8f5e 053e 5973 2e3e
00000030: 690b ef3d f875 bb3d 5c2a 3fbe 000c d23e
00000040: c7f8 b63d 3a4d 1dbd 58cb f83d 443d 3cbd
00000050: caef 633e afaa 903e b6ad 9b3e 84c3 afbd
00000060: 26fc 003f 5cd8 fe3d 79aa 6a3e 4398 203e
00000070: d2b8 84bd d042 9cbd 7d9a a2bc 940e 843d
00000080: dd95 783d 2f07 1dbe 175b 433e e202 a6bc
00000090: 03b7 96bc 4d20 393e 3d7e 093f cdcb 44be
000000a0: 208d c53b 757c c23c 129c a13d cd4f 1cbd
000000b0: 38ed debb 8b20 163d 2bde 2e3e 1af2 633e
000000c0: cf6a 233f 1d21 953e e7d6 47be 779c 283e
000000d0: 3431 833c 7383 163e ad6d c2bd ffea 0fbe
000000e0: 79c6 573c 311a 82be 6626 2fbd 0850 31bd
000000f0: a05f bb3c a9d6 7bbd 90e5 30bd 6fb3 8fbc
00000100: 2d6a c13d 33f1 5f3d dc6b 2ebe f94d 46be
00000110: ff08 42bd 127d d33e 9f8e 8abc cc93 163d
00000120: a5e8 9a3d 94c0 25be af60 80bd f90e cdbc
00000130: e673 67be 7694 adbb c276 3b3d e8ea 443e
00000140: a032 7cbd f2be fd3d f0c6 64bd c951 bb3d
00000150: 02b0 263e f280 7f3d 8f56 41be d435 1bbe
00000160: b6c5 e5bb 1204 fdbc 54cb 523e bc5b 893e
00000170: 9ccb 04be e019 263e 9522 863e f440 673e
00000180: 038c 643d dd54 e8bd e07d 0cbc aa49 d0bd
00000190: b699 813d aaaf 8a3d 9718 223d 5eb3 803e
000001a0: 13a8 5dbe 9745 00be 8401 d53e dc16 acbc
000001b0: 9154 833e f85b 7fbd 8f4a 253e 43d8 333e
000001c0: 94bf b2bd 4316 103e de80 953b e389 143e
000001d0: 634b 3a3d c791 0fbe c9bc 873c 10f6 c23d
000001e0: ad79 01be 0ba7 52bc 6487 ccbd 5fef d63e
000001f0: 5700 5b3e efb3 a3bc 7947 83bd edb5 cfbd
00000200: 8355 453f 2700 8b3e a90a 0a3f 95f9 0c3f
00000210: a222 453f a377 15be 4c8a 3c3f 7fe4 e13e
00000220: 8513 ed3e a687 193f 5b18 ab3e f891 413c
00000230: 8db5 033f d0a2 3e3f 740c 263f e20b 9b3e
00000240: 5980 9a3e 8f9c 443f 5ae8 3c3f 1512 a13e
00000250: cb62 6a3e d07b 553f 278d 233f ef89 3d3e
00000260: 533d adbd 2e41 933e 0a57 483f 639b 103f
00000270: a5bf 0b3f 51f2 593f b128 623f 84fe d33e
00000280: c076 3a3f 0c41 213f 8abb c63e 4d7a d23e
00000290: 6b77 013e 78af f93e 54e5 2c3f 5010 1b3f
000002a0: 1cf7 033f ce6c 403f 9db1 d33e 1d0f 823f
000002b0: cdb0 563f a24e 9c3f 4e58 d13e f74f 763d
000002c0: 4b05 323c 58f4 713f d51c c33e 7745 133f
000002d0: f811 253e 4dce 313f 6f7f 7d3f 0f3b f23e
000002e0: 4072 673e 091b fa3e 0c59 093f a4c9 353f
000002f0: 5541 f73d c123 0a3e 7429 093f b090 313f
00000300: 4a8c b83d a59e 163f 27e8 ca3e eb55 fc3e
00000310: ae3f 253f f47d d6bd 5ffb 1c3f 0be1 813e
00000320: 67cc 813e d8d4 2a3f a931 213f d104 193f
00000330: 90b0 873e be66 e33e 7402 943e a6b8 0a3f
00000340: cd80 3e3d 0a12 76be 8598 273f c215 5e3f
00000350: 92f1 a93e 5103 3e3f 6d84 0fbc cc5d d23e
00000360: 43de a43e 9ee9 ec3e 95c0 843e 9ba7 683e
00000370: 22cc 583e 1ea8 81be 1a61 823f 88a6 0cbf
00000380: fe95 903e 7894 943e 097d d43e 76e9 eb3e
00000390: 1a52 353f 2fa5 3b3e 0bc7 143f 753c 803e
000003a0: 9a53 863e de0d df3e c7ad a5be 62d0 4d3f
000003b0: f1f1 323f 83b0 c93e 2dbc 073f ecbc 103f
000003c0: 8987 513f 0e5a 303f b3d2 cb3e 1ed1 093f
000003d0: 3773 483f cf14 113f 74da 9b3e 599c b03e
000003e0: 9e46 e63e c75e 963e 0191 b43e 2cf9 1bbf
000003f0: ac1d 9abb 3975 ba3e a4ca 683f 602f 6f3f
-0.04235521 0.41066143 -0.07254132 -0.16330312 0.008576082 0.118738785 -0.06407827 -0.29966804
0.014839673 -0.15233208 0.13024352 0.17036189 0.11672098 0.0915336 -0.18668503 0.4102478
0.08934169 -0.038403727 0.1214816 -0.045956865 0.22259441 0.2825522 0.30405968 -0.085822135
0.5038475 0.12443611 0.22916593 0.15683083 -0.06480564 -0.07629931 -0.019849056 0.06448093
0.060689796 -0.15334772 0.19077717 -0.020265047 -0.018397814 0.18078728 0.5370825 -0.19218369
0.0060287863 0.023740986 0.07891096 -0.03816204 -0.006803181 0.03665213 0.17076938 0.22260323
0.6383485 0.29126826 -0.19515572 0.16465937 0.016014673 0.14698581 -0.09493575 -0.14054488
0.013169878 -0.25410607 -0.04276123 -0.043289214 0.022872746 -0.061484013 -0.043187678 -0.017541615
0.094440795 0.054673385 -0.17033333 -0.19365682 -0.04737186 0.4130636 -0.01691371 0.036762044
0.07563905 -0.16186744 -0.06268441 -0.025031554 -0.22602805 -0.005297239 0.045767553 0.19230235
-0.061571717 0.123899356 -0.055853784 0.09146459 0.16278079 0.06237883 -0.18880676 -0.15157253
-0.0070120944 -0.03088573 0.20585376 0.268278 -0.12968296 0.16220808 0.2619826 0.22583371
0.055797588 -0.113443114 -0.008574933 -0.101703 0.06328146 0.067717865 0.039574232 0.25136846
-0.21646146 -0.12526546 0.4160272 -0.021006994 0.25650457 -0.062343568 0.16141723 0.17562966
-0.08727947 0.14070992 0.0045624813 0.14505725 0.04548205 -0.14020453 0.016569512 0.09519589
-0.12644072 -0.012857209 -0.09986761 0.419795 0.21386848 -0.01998326 -0.06410117 -0.101421215
0.77083606 0.27148554 0.53922516 0.5506833 0.7700597 -0.14596419 0.73648524 0.4411964
0.46303955 0.5997261 0.3341702 0.011814587 0.514489 0.7446718 0.6486275 0.30282503
0.30176046 0.7680139 0.7379204 0.31459108 0.22889249 0.8339205 0.63887256 0.18509649
-0.08458962 0.28760666 0.7825781 0.564871 0.545893 0.8513537 0.8834334 0.41405118
0.7283745 0.6298988 0.38814956 0.41108933 0.1264321 0.48766685 0.67537427 0.60571766
0.51548934 0.7516602 0.41346446 1.0160862 0.83863527 1.2211497 0.40887684 0.060134854
0.01086552 0.94513464 0.38107935 0.5752787 0.16120136 0.69455415 0.99022573 0.47310683
0.22602177 0.4884875 0.536515 0.71010804 0.12073008 0.13490202 0.5357888 0.693614
0.09011133 0.5883582 0.39630243 0.492843 0.6455029 -0.104732424 0.6132106 0.25367007
0.2535126 0.66731024 0.629664 0.59772974 0.26501894 0.44414324 0.28908122 0.54188
0.046509553 -0.24030319 0.654671 0.8675195 0.33192116 0.7422381 -0.0087596 0.41087186
0.32200822 0.46271986 0.25928178 0.22720186 0.2117162 -0.25323576 1.0185883 -0.54941607
0.28239435 0.29019523 0.41501644 0.46076554 0.708284 0.18324731 0.58116215 0.25046125
0.26235658 0.43565267 -0.32359144 0.8039609 0.69900423 0.3939248 0.5302151 0.5653827
0.81847435 0.6888741 0.39809188 0.5383471 0.78300804 0.56672376 0.30440104 0.34494284
0.44975752 0.29369184 0.3526688 -0.6092708 -0.004703244 0.3641756 0.90934205 0.93431664

decoder_rnn.weight_ih_l0 f4 [384, 64]
00000000: d0cf 4bbf 7535 a6be b9f6 86be c35d a1be
00000010: 844a cabe b0af 2fbf 1764 2cbf be3b d43e
00000020: a80c 57bf 2c05 b1be 8128 373f b1cb 9fbe
00000030: a2e8 cd3e b099 8b3e 2689 d53e c9c1 18bf
00000040: 0dd3 d5be 08db cc3e 28e2 373f 81b4 73be
00000050: dd73 d3be 4004 df3e 00a2 173f 8f7a cdbe
00000060: 262e 92be d784 433f 638f a73e 7dce ea3e
00000070: 46df ccbe 3204 8bbe 72c8 20bf 2cfb 9e3e
00000080: 3f0f a73e 63dd ccbe a8d1 7cbf 60b1 1dbf
00000090: fbae ab3e 6f35 c83e 328d dcbe 93b1 ccbe
000000a0: 5252 d93d ab2e 313f 89ff 11bf 0391 3f3f
000000b0: 89bd a53e f3ed 06bf 9760 b0be e739 e7be
000000c0: 89eb 073f 0e99 44bf 33da e93e 6397 d23e
000000d0: 3b5f e13e 2484 2f3f 8ad4 fdbe 44e3 a0be
000000e0: db4d 99be 295f 173f 20b5 503f 0516 063f
000000f0: 7453 9f3e 841c 29bf f37e b53e 60d8 a03e
00000100: 70d3 b1be 300f 84be 9dc5 b5be 1642 bcbe
00000110: f402 89be 15cf f2bd 4c84 63be 145c aa3e
00000120: c979 28bf 45b3 d6be 798c 1d3f ce5b cbbe
00000130: 467d be3e 7e12 8f3e 2621 b23e c0c4 74be
00000140: fffd bcbe ed04 c73e cae7 d43e b969 9fbe
00000150: f788 7abe a374 c03e 0bbc 333e cd3c 2ebe
00000160: 8aad 87be 8c9c 0b3e f182 963e 5fbf d63e
00000170: 01f3 00bf 49b5 6fbe 6266 5fbe 33e6 a93e
00000180: e35d d33e 297c e1be 6f75 3cbf a4df 25be
00000190: f76f d03e 02a1 cf3e 2306 b7be a5fb 8ebe
000001a0: 45c5 0c3e dad7 9c3e 8b68 29be 7fde 9c3e
000001b0: 4260 8a3e ed49 07bf 3949 c0be 2ebe d0be
000001c0: fcca 7d3e caa1 73be dfad d83e 7d68 f83e
000001d0: 0d0b 453e 7922 fd3e 6860 16be a63d 1dbe
000001e0: 3d7f 91be c146 0e3f d13c 383e 1450 ee3e
000001f0: aefb b03e 639f 57be a856 0d3e 4834 c63e
00000200: 63c8 61bd f6aa fabc 2861 f1bd aeb0 18be
00000210: f90a 2fbe cb9f d83d eeda 39be b48c 083e
00000220: 5709 0ebf 9459 c0bd c6e7 e33e 6ddd ebbd
00000230: 523b a93d bfd7 2a3e 2265 e93d 0a12 09be
00000240: f44d a3bd 6f1f 063e 5a75 0a3f aea0 933b
00000250: df0c e1bd 82f9 433e c8a3 5bbd 4ff2 20be
00000260: bd25 04be 9b3f 4ebc 303e 453e 26e1 f33d
00000270: 6de1 81be 2191 4bbe 82b5 be3b 88af 233e
00000280: dedc 3a3e 543a 19be fb73 69bf 774f d1bd
00000290: be79 ab3d 3706 5d3d d1d5 29be 053d c0bd
000002a0: 9fb2 c63d 99e6 a93d 7808 2fbd 51c7 8cbc
000002b0: fd46 4a3d 0894 c5be 1d2e acbd 29bd 7cbe
000002c0: 0335 8e3d e01a d9bd c27e 5e3e fed5 6c3e
000002d0: 1179 93bd bac7 dd3e 4d69 abbc 592a 25bd
000002e0: 005e e9bc 4006 cc3e b916 1d3c 3bdc 8f3e
000002f0: 83cc d73d 3c99 a33d 579f b7bd bf5e 4f3d
00000300: 7c0c 34bd 95a5 ffbd e0de 9fbd 7e0b 3ebe
00000310: df61 b5bd 2400 78be a157 97be f663 3b3e
00000320: dd11 81be b322 6bbe c485 7c3e ab07 47be
00000330: 7162 1f3e 6cc1 e13e ab03 3e3e 5aea 99be
00000340: e4f9 5ebe 4eb8 223e 42b8 893e 43c1 6fbe
00000350: 296a 48be 68a9 e63d 1bb0 2f3e 187b d1be
00000360: be7c 91be 6789 a33c af7f 453e 3253 cf3d
00000370: 420c 20be d7bb f3be f063 ddbd 25ea 133e
00000380: 11de 013e a97a 0abe 7b5d 88be 5eb5 52be
00000390: c37a c53d 73e9 353e b139 42be 6a19 20be
000003a0: eda6 c03e f2b9 0a3c 29de 2ebe f806 393e
000003b0: 9fb6 dd3e b309 3fbe e0d0 a0bd 66cc ffbd
000003c0: d5b4 bf3e 1276 76be 0990 663e 3f70 123e
000003d0: bfd5 8d3e 0e6b 2b3e 0adb 54be 02f2 94be
000003e0: 99f0 73be 5f57 2a3e 136d 033d 80ce ce3d
000003f0: 8f0c d83d 0ed7 76be 4998 bf3e f16b 8d3d
-0.7961397 -0.3246266 -0.2636011 -0.31516847 -0.39509976 -0.6862745 -0.67340225 0.4145183
-0.84003687 -0.34574258 0.7154618 -0.31210092 0.40216547 0.27265692 0.41706198 -0.5967069
-0.4176258 0.40010858 0.7182946 -0.23799326 -0.41299334 0.4355793 0.5923157 -0.40132567
-0.28550833 0.7637457 0.32726583 0.45860663 -0.40014094 -0.27151638 -0.62805855 0.31051004
0.3262882 -0.40012655 -0.9875741 -0.6159878 0.33531937 0.39103267 -0.43076473 -0.39979228
0.106114045 0.69211835 -0.5703054 0.74830645 0.32371166 -0.5270683 -0.34448692 -0.45161363
0.53093773 -0.7679604 0.45674285 0.41131124 0.44017968 0.68561006 -0.49576217 -0.3142339
-0.29942212 0.5912958 0.81526375 0.5237735 0.31118357 -0.66059136 0.35448417 0.3141508
-0.34731627 -0.25792837 -0.3550233 -0.3676917 -0.26760066 -0.11855904 -0.22218436 0.33273375
-0.6581083 -0.41933647 0.6154247 -0.3971848 0.3720495 0.27943796 0.34790915 -0.23903179
-0.36912534 0.38870946 0.4158309 -0.31135347 -0.2446631 0.37588987 0.17552201 -0.17015381
-0.26499587 0.13633937 0.29396775 0.4194288 -0.50370795 -0.23408999 -0.218164 0.3318344
0.41282567 -0.4404004 -0.7361669 -0.16198593 0.40710422 0.40552527 -0.3574687 -0.27926365
0.13747127 0.30633432 -0.16543786 0.306385 0.27026564 -0.52847177 -0.37555864 -0.40770096
0.24784464 -0.23792186 0.42320153 0.48517218 0.19242497 0.49440363 -0.14685214 -0.15355548
-0.28417388 0.5557671 0.1799195 0.4654547 0.34567016 -0.21056895 0.13802588 0.38711762
-0.055122744 -0.030599099 -0.11786109 -0.14911148 -0.1709403 0.10577353 -0.18149921 0.13334924
-0.55483 -0.09392086 0.44512767 -0.11516843 0.082632676 0.16683863 0.11396243 -0.13385788
-0.07973853 0.13097928 0.54085314 0.0045052385 -0.10988783 0.19138148 -0.05362299 -0.15717433
-0.12905021 -0.012588407 0.19262004 0.11908178 -0.253673 -0.19879581 0.0058199773 0.15984929
0.18248317 -0.14963657 -0.911926 -0.10220235 0.0837283 0.053961005 -0.1658547 -0.093866386
0.09702038 0.08295936 -0.042732686 -0.017184885 0.049384106 -0.385895 -0.08407233 -0.24681534
0.06943705 -0.10600829 0.21728042 0.23128507 -0.07200826 0.43316442 -0.020924235 -0.04032359
-0.028487206 0.39848518 0.009587937 0.2809771 0.105370544 0.079882115 -0.089659385 0.050627466
-0.04395722 -0.12482754 -0.07806182 -0.18559071 -0.08856558 -0.24218804 -0.29559043 0.18299851
-0.2520894 -0.22962455 0.24660403 -0.19436519 0.15564896 0.44092882 0.18556087 -0.3006161
-0.21775013 0.15890619 0.2689839 -0.23413567 -0.19571747 0.112627804 0.17157023 -0.40914226
-0.28415483 0.01996298 0.19286989 0.1012329 -0.15629676 -0.47604248 -0.10810077 0.14444788
0.12682368 -0.13523354 -0.2663382 -0.20576999 0.096425556 0.17764835 -0.1896732 -0.15634695
0.37627354 0.008467184 -0.17076935 0.18069065 0.4330339 -0.18656044 -0.0785234 -0.12490158
0.3744265 -0.24068478 0.22515883 0.14300631 0.27702138 0.16740057 -0.20786682 -0.29090887
-0.2382225 0.16634892 0.032086443 0.100979805 0.1054927 -0.24105474 0.37420872 0.06905354

decoder_rnn.weight_hh_l0 f4 [384, 128]
00000000: e8bf 993f 9972 0dbe c287 04bf 706a b63e
00000010: cb8f 013e b85d 613f c377 b8bc fd98 043f
00000020: 39e8 30bf 34c5 513e 0dfe 963d e23e cbbe
00000030: b043 29bf d142 20be 2db1 9a3d 66b4 353f
00000040: 92e1 ebbd 8b41 1b3c c279 aebe d4db 44bd
00000050: 74e7 853e 234e bbbd 9a49 443c 79f8 e7be
00000060: 1c86 f7bc a8d3 59be 81f2 bd40 d4d2 923e
00000070: bde5 853e 405e 52be be13 243d 72d6 cd3d
00000080: db99 3d3f 2209 cd3c 2f99 8f3f 7fae 62be
00000090: 142c 23bf 3d65 bfbe 786e 7ebf fdaa 4cbd
000000a0: 0f12 5f3e a147 443f da42 cfbd 3d8c 82be
000000b0: 91da 593e b72b 09bf 7298 133d a39c ee3d
000000c0: d2c8 c4bd c626 ba3e f552 19bf 5f1a 89be
000000d0: de0d c6be ce23 1cbf 2e1c fcbd 6fbf 11be
000000e0: df64 12bf 84c1 15bd 246e 3bbf 1b03 89be
000000f0: 9ae8 21be 70f2 013e cde0 7cbf cac7 153f
00000100: dc8a ff3c b47a 85be ec94 d83d 1d70 ec3d
00000110: 445d c5be ce1f 3b3e 8d42 04be 2e65 1bbf
00000120: 3f1e cc3e a126 d5be 25d0 05bf e7d3 5c3e
00000130: 4bcf 9b3d 0ee5 71be 9df8 8f3f ebe8 2abf
00000140: 0781 233e a22e 293e 1c02 39be e197 c1bd
00000150: f9b4 edbe 3f51 2a3f 5c35 a03e 88b3 2f3f
00000160: fcd5 883e f004 4f3e f696 bb3e ab08 e13e
00000170: 2afd 503f 04bf 3bbe 927c 083f 6d00 d33e
00000180: c168 c43e 7cec 22be 44f7 ab3c 1dc1 a43e
00000190: 5eaf 7abd ed79 763e f4ba 923e ab6c a73e
000001a0: b307 da3e 476f b5bc 2f2c bfbf e2f7 8cbd
000001b0: 89cb 0ebd bcf8 9e3e 2622 0bbe 86cc 653e
000001c0: 7baf aabe 2223 23bf 4157 063c 4263 fc3d
000001d0: 0194 4d3f 7381 b2be e8db 3d3e 4b2e ac3e
000001e0: 14bd f2be d82c 42bc f814 103f 7bbe 5fbe
000001f0: 460d 653f 6c20 6dbe 92a8 133f baa1 033f
00000200: 6f85 173d 8e65 c9bc 0dc6 cd3e a999 0bbf
00000210: 2d52 ce3d 1808 c83e 80a1 61bd dd8a 19bf
00000220: 83b7 963e fac8 c43d 0734 e3bc 69da 4fbe
00000230: df6d 1e3f d41d 1dbe e253 9d3e b0f7 023f
00000240: ad7b febe 8fbf c73d e3a4 3cbe aab5 633f
00000250: 402c 0bbe 3bdc 6abe 082b cfbf b706 b0bc
00000260: ef81 cf3e f2c5 c23c 81e8 8fbd 7764 e7bd
00000270: b419 4ebd d7d2 563e 32ea 4dbe 3fb8 64be
00000280: 95fa 3abe 61e4 45be 96ca ecbd a23b cd36
00000290: 7616 353e 9475 57bc 62f2 0fbe b74d 94bd
000002a0: 815d 1abe 3bbe 913d dcc0 c93d ef65 923d
000002b0: 433b 083e 55bf 55bd cab7 b03d 966a 6abf
000002c0: 50ba eebd f64c 02be b312 18be 478c bbbd
000002d0: c56e 813e ed9e 223d c98e ae3d 8509 343e
000002e0: 7a3c abbe 44f1 363f 1b2f 1d3f 0ffe 983c
000002f0: a722 0a3f 3095 ad3e b653 fbbe 5ad2 573e
00000300: f7e3 af3d 9ab4 263e 8a4b 42be d4e9 e1be
00000310: a574 1b3d 986e 813e bfc1 42be 21dc 5d3c
00000320: 6be7 a73c ea6f 04be b49b 5b3d 18fe f2bc
00000330: 67d3 f13c d143 023d a0af 38bf 8221 273e
00000340: 3be2 02be 1a76 98be d914 a0bd 4f05 9ebe
00000350: 5609 163f 5c01 bf3d bed3 f03d e682 703e
00000360: 46db bcbe 287d e33e 3bfc a83d 0824 8bbf
00000370: 0495 9d3e 9fa9 7d3e 0582 2c3d 8e62 dd3e
00000380: f19d 0b3f a4bf f1bc 49a5 38be 53a5 4fbf
00000390: 479a 17bd 3317 2fbe 74cb b83e 43f4 19be
000003a0: 0299 77bd c307 25be e3b6 31bf aaa4 1bbd
000003b0: 21ad 0540 008d 813e 2003 1ebd fb24 63be
000003c0: 98bf 2d3e 88ff b33d c61f b63e b738 7ebd
000003d0: 8619 0dbe b9df 1f3e 8adc 84bd 0918 efbe
000003e0: aaaf 0f3e 5841 ed3d cc31 ac3e eddf 613e
000003f0: bb4f 0cbc fba8 10bf 1790 4fbd 713e a33e
1.201169 -0.13813247 -0.5176965 0.3562808 0.12652509 0.8803363 -0.022518044 0.5179594
-0.69104344 0.20485383 0.07372675 -0.39696413 -0.6611891 -0.15650488 0.07553325 0.7097839
-0.115176335 0.009476076 -0.3407727 -0.048061207 0.26153147 -0.09145763 0.011980439 -0.45306757
-0.030215316 -0.21272147 5.9358525 0.28676474 0.2615184 -0.20543766 0.04005789 0.10050668
0.7406289 0.025028769 1.1218623 -0.22136877 -0.6373913 -0.37381926 -0.9938731 -0.049967755
0.21784233 0.766718 -0.10120173 -0.25497618 0.21274783 -0.5358233 0.036034055 0.1165097
-0.09608616 0.36357707 -0.5989221 -0.26777932 -0.38682455 -0.60992134 -0.12310062 -0.14233182
-0.5718517 -0.036561504 -0.73214936 -0.26760182 -0.15811387 0.12690139 -0.9878052 0.5850798
0.031194143 -0.26070178 0.105752796 0.115448214 -0.3854772 0.18273851 -0.12916012 -0.6070126
0.39866826 -0.41631034 -0.5227073 0.2156521 0.07607897 -0.23622534 1.1247746 -0.66761655
0.15967189 0.16521695 -0.18067211 -0.09452797 -0.46427134 0.6653022 0.3129071 0.6863332
0.26725757 0.20216727 0.36638612 0.43951926 0.816363 -0.18334585 0.5331508 0.41211262
0.3836117 -0.15910524 0.020991929 0.32178584 -0.0612024 0.24069948 0.2865826 0.32700095
0.42584 -0.022147788 -1.4935359 -0.068832174 -0.034862075 0.31049144 -0.13587245 0.22441301
-0.33337006 -0.63725483 0.008199514 0.123236194 0.8030396 -0.34864387 0.18540919 0.3362907
-0.4740988 -0.011851512 0.56281996 -0.21850006 0.8947338 -0.23156899 0.5767909 0.5141865
0.036992487 -0.024584558 0.40190163 -0.5453134 0.100742675 0.39068675 -0.05508566 -0.59977514
0.29436883 0.09608646 -0.02773477 -0.2029816 0.618864 -0.1534341 0.3072806 0.5115919
-0.49703732 0.09753334 -0.18422274 0.8894907 -0.13591099 -0.22935574 -1.6185007 -0.021487577
0.4052882 0.023776028 -0.070267685 -0.11298459 -0.05031748 0.20978867 -0.2010887 -0.2233591
-0.18259652 -0.19325401 -0.11562078 6.1164183e-06 0.1768435 -0.013150591 -0.14057305 -0.072413854
-0.15074731 0.07116362 0.09851238 0.071483485 0.13303857 -0.05218442 0.08628805 -0.9156889
-0.1165663 -0.12724671 -0.14850883 -0.09157615 0.25279823 0.039702345 0.08523328 0.17581756
-0.33444577 0.7146189 0.614 0.018675832 0.53959125 0.33902884 -0.49087304 0.21076337
0.08588403 0.16279832 -0.18974128 -0.4412371 0.037953038 0.2527969 -0.19019221 0.013541252
0.02049609 -0.12933317 0.053615287 -0.029662177 0.02951975 0.031802956 -0.7214298 0.16321376
-0.12781613 -0.29777604 -0.078164764 -0.30863425 0.58607996 0.09326431 0.117591366 0.23487434
-0.36886042 0.44431424 0.08251234 -1.0870371 0.30777752 0.24771737 0.042116184 0.43239254
0.54537874 -0.029510327 -0.18031801 -0.8111164 -0.037012365 -0.17098694 0.36092722 -0.15034585
-0.060448654 -0.16116242 -0.6941969 -0.037998833 2.088692 0.25302887 -0.0385772 -0.22182076
0.16967618 0.08788973 0.35571116 -0.062065806 -0.13779268 0.15612687 -0.06487377 -0.46698025
0.14031854 0.11584729 0.33631742 0.22058077 -0.008563931 -0.56507844 -0.050674524 0.31883577
